Lab4/trained_rbm/rbm.vis--hid.bias_h.npy (npy, 4128 bytes, 1 tensors)

array f8 [500]
00000000: b6b6 fb0b 4480 86bf 917e fecd 8e3e 773f
00000010: e043 e017 54fe 83bf 7aa7 c121 062d 60bf
00000020: d294 754e 0a2c 7abf b566 92f1 afe5 5cbf
00000030: 7a53 6615 60c2 52bf 8f59 8a81 683e 93bf
00000040: 8865 f668 599a 5b3f e74f da5b 0e08 743f
00000050: bdf5 ada3 71aa 82bf 95c9 822d 2f1c 6c3f
00000060: 7772 eff9 05b3 82bf cf9b 987b e376 61bf
00000070: 43b9 0c80 dea4 80bf 77c0 397f 6507 943f
00000080: 31cc 8bae 4bd9 8a3f d598 2dc5 297e 66bf
00000090: c35e 1c3a b3a4 7a3f 022f e788 b70e 923f
000000a0: 348e 5b75 15c3 31bf e5ca f486 4f0f 723f
000000b0: 33e1 5d62 2fc3 903f 4d5f d090 5016 783f
000000c0: 1103 7cda df82 713f 9830 6852 4109 773f
000000d0: 0ecb 0b42 9370 83bf b528 321c a0fa 88bf
000000e0: 5e9f b5f0 94fc 613f ffc5 610b 01cc 82bf
000000f0: 81f8 f71e 204a 80bf faf5 41e7 9401 723f
00000100: 2c99 4c11 821d 783f 33a4 1bfd f8fd 943f
00000110: a4db 1d69 f671 9d3f 2da2 af24 863c 7abf
00000120: e5dd af59 a8bb 6abf 165a 5dc4 634d 4b3f
00000130: c21e 97c9 e3b3 803f ae5f 1045 aa84 8abf
00000140: 780e 33ae bf54 75bf c9ba 91c5 bb51 88bf
00000150: ddce 76c8 e2fb 90bf f168 fd6f 2280 733f
00000160: 40e4 bb19 e54f 873f 627d 74e0 2d22 913f
00000170: a544 dd33 d724 75bf b37a 7978 45df 7a3f
00000180: cf38 5aac 8dd9 733f de04 fe3e 193c 703f
00000190: 83be f4ec a67a 7ebf cae0 64b2 b1d8 55bf
000001a0: aab7 0974 330a 833f c9a0 28d6 1fc5 6ebf
000001b0: fed1 50c9 beb4 813f 0e7a 8938 1beb 2abf
000001c0: faab f6f3 faa3 8ebf dc3e 14a0 74bb 863f
000001d0: a313 cbe7 1c6b 88bf d53d 56ca d89c 733f
000001e0: fa53 a6f0 31eb 613f 310a 7229 2d35 71bf
000001f0: 53ff bba6 692e 8abf fa61 c7d4 570c 5cbf
00000200: 6dae e728 9040 7cbf 769a b913 2582 7fbf
00000210: 3c3e 9756 738e 76bf 018d b486 3a93 6abf
00000220: da23 5877 4971 6b3f 2eb8 2103 fb92 503f
00000230: 4c27 9a78 a144 8f3f c184 e82b 1e74 73bf
00000240: 1a7b 8abb 7bf0 72bf 60c8 473e f617 943f
00000250: 5132 a4d8 a360 7fbf 8d56 38d6 a45b 8e3f
00000260: 7846 14a0 5a67 55bf 5591 f15a 339b 58bf
00000270: 9c63 801a 32c3 783f f388 af1a ef13 573f
00000280: 96cc b95a f3ca 75bf 6409 eabb ab8b 83bf
00000290: 1e64 1e71 d3a8 5a3f 43eb 85a4 df17 693f
000002a0: 376e e000 3e65 8abf cfeb 8c1f 4388 833f
000002b0: 2780 0011 40a3 6ebf 6f46 5449 9719 85bf
000002c0: 3f43 2aaa 219b 803f 1c92 de92 d5f3 4bbf
000002d0: a039 5cce 4060 8dbf 8ceb 423f 8c3e 7b3f
000002e0: d88b 1917 5bc0 65bf 7744 b155 8b77 753f
000002f0: df6f ad98 9f27 85bf b7d3 ee98 cdb0 8dbf
00000300: 7fdc 688a 9c3e 663f 07ce 0641 4659 72bf
00000310: e386 682c 7939 5a3f e1cb 5e79 c335 803f
00000320: 7540 4b42 9f97 753f 901d f97f 013c 5a3f
00000330: 3733 61cd 53f6 813f 4aaf c7e7 4957 673f
00000340: 5b0b a87e 0474 75bf 83ad 265a 16ae 6f3f
00000350: c7ba 691c 25ea 873f 5fa5 1434 45f2 243f
00000360: 8321 e4e3 0bb6 78bf c424 3240 804d 673f
00000370: da07 ab92 336b 8f3f 845e ba8a 49f7 7d3f
00000380: a5f5 d928 526e 8cbf c748 2718 90b0 503f
00000390: 9c46 42e6 8df5 7fbf c8c4 d666 2343 60bf
000003a0: d1c6 95c7 3e18 73bf c756 a6de 80c0 6a3f
000003b0: e72a 81cf 1689 83bf 0df7 acb2 5307 6abf
000003c0: 5b32 ee56 65df 733f 87d7 585b 454b 76bf
000003d0: 2e9e 4b5f 763d 7cbf ecbd 9b6e a572 50bf
000003e0: 05db 7625 efb8 5cbf d5cb ea37 db4f 6b3f
000003f0: 0e7f afd8 e727 843f 4f28 7680 543e 74bf
00000400: 4094 1597 224d 7a3f 2641 4764 eacc 83bf
00000410: 856f 509f 86d6 82bf 88ff 2d8d 5d92 99bf
00000420: 2f8e 0d4b bd8d 863f e1ac 6b6f 0d24 7a3f
00000430: 6abd 3f47 bfe3 82bf f695 faf9 8bb1 743f
00000440: ccd3 80eb 0a07 75bf a4cb 18e2 c29b 6a3f
00000450: 9e01 51be 1270 8cbf 32b7 1cff 49e1 72bf
00000460: 71aa a8da 0272 833f b19c d23e 8755 4e3f
00000470: 9a41 1af9 9761 7a3f c8e7 a9b3 0fce 7e3f
00000480: d0ad 5dd7 14ae 78bf 5871 9fef 9b1a 903f
00000490: ee22 ae39 f6cd 893f abef b028 c9e4 823f
000004a0: be00 6228 93f2 89bf 6e58 f091 0ea6 7e3f
000004b0: b1c2 8ab0 f7c1 8bbf 1ac1 a02d fc46 92bf
000004c0: 2829 3abf b341 713f 7521 4e42 6b5b 82bf
000004d0: b991 e3f4 911a 50bf 5f98 6b10 ce90 32bf
000004e0: 8e2a c1bf 5b65 693f 23d3 43cc 5990 83bf
000004f0: ceee 3624 91ac 5bbf 2ed1 c410 ad42 77bf
00000500: faaf d077 8b3d 64bf 40f7 0345 c544 56bf
00000510: 8dab 07d5 d4fc 6b3f d5b7 2c1b eec5 9bbf
00000520: ad23 02bb 3e6d 733f 2343 d7b3 662c 8a3f
00000530: 01b7 6bd7 65a6 58bf d668 3f05 c688 6bbf
00000540: 235d d346 5e8f 84bf c058 4c84 34b8 573f
00000550: 6e4c 86ff 2a99 7fbf 0ba3 9795 781e 733f
00000560: be9a bdd5 018e 7a3f 20f9 89cb 794e 6bbf
00000570: b8be 0e71 9386 60bf 40b3 e04b 3a17 6dbf
00000580: 31d9 7fdd 4624 853f 66cd c91d 9b0a 423f
00000590: 88af 1998 450d 3cbf 081e 9350 b28e 613f
000005a0: e3d2 9ef9 bb9c 81bf dae8 f22d be67 483f
000005b0: 5c42 1dfb 076c 753f 9001 0512 35cf 5b3f
000005c0: 57a1 11bd 16e2 97bf 6385 44ad 60ca 723f
000005d0: dc0d 4765 3c54 77bf 323c 5f87 f512 673f
000005e0: 99d4 ed96 dbb0 6f3f 2d69 db9c 61ec 84bf
000005f0: 9e3e 7815 f135 603f 4855 3724 3639 86bf
00000600: 3cc3 3d4a 8ae4 843f 37dc 2485 517c 723f
00000610: bf6e 5bb0 0739 4b3f cb19 0c6e 057d 223f
00000620: ceb5 1a36 5612 803f f661 1939 5379 7dbf
00000630: 5f15 479e d6d7 943f 15ce 56cf 52de 79bf
00000640: 4867 eceb 6aeb 81bf b840 56d6 c5f1 6c3f
00000650: 2cf0 76d7 d692 533f 73d4 fe62 b30e 7f3f
00000660: 6dae 9f98 011b 6d3f 299f a5ab 7b58 86bf
00000670: b84a 0ee8 aeea 75bf a5e7 66aa 7b98 76bf
00000680: 5c14 8ad9 b4a1 593f 8e10 7964 be2a 87bf
00000690: 0caa a095 d138 97bf 1141 5e71 119f 86bf
000006a0: 0d3d e036 d71b 7bbf 2735 89bd 6dfb 7a3f
000006b0: ef8b 3cb4 03c9 86bf 475b 25ba 575a 833f
000006c0: 27b5 235b a83a 633f e56e c781 d143 7d3f
000006d0: 1ae0 c6a6 4734 6c3f 9c25 3355 dd36 47bf
000006e0: ec5a 8897 9184 3b3f fa27 dc82 85a0 64bf
000006f0: 5f8d 2818 8277 73bf 7067 fe82 0942 79bf
00000700: da49 9fb3 fe78 833f a80c 666e b6ea 743f
00000710: a864 b00e f5ef 67bf 9a0d d66d 72b5 703f
00000720: 03e6 e078 80ad 84bf 2aca bf67 1225 79bf
00000730: 85e4 daf3 209f 663f f10c e9c5 d224 7c3f
00000740: b38e ac74 12d7 683f a1d1 b824 52c7 87bf
00000750: 4a45 0da2 9c7b 8e3f 3516 5706 4460 843f
00000760: 4ee6 503e 6b87 933f 25ed b08c 567f 71bf
00000770: 92f9 5cf5 c8e4 883f 103c 0a90 9ae4 81bf
00000780: bb33 d89b ef7e 7abf aa26 ad4d fcd7 3abf
00000790: 12ce f3f2 eec5 8c3f 377e 3fc0 b1de 5b3f
000007a0: 7cfb 044c 4a51 9ebf 1cf4 322a 08a5 86bf
000007b0: c1a5 ddde fbab 773f 2dee 139b 3f08 83bf
000007c0: a95f 8c52 9b06 66bf 7f5f 3950 da70 84bf
000007d0: abec 3102 db65 63bf 175a 34f6 812c 8abf
000007e0: 6770 0695 9e2c 74bf afef 4360 40ea 733f
000007f0: b328 54b0 d9ee 653f fa62 95a5 b870 90bf
-0.010986835113239262 0.005674894171448523 -0.009762436846388611 -0.001974594093600621 -0.006389656314557972 -0.0017637460898981942 -0.0011449755016645622 -0.01879275599147828
0.0016847489494920837 0.0048904953852293214 -0.009114158446886894 0.0034314080658869963 -0.009130522432252193 -0.002131885816897029 -0.00812696293141058 0.019559465303644132
0.013109771026824731 -0.002745706160044307 0.00650472651047779 0.01763426564302418 -0.0002710273159733684 0.004409132626551159 0.016369572047069524 0.0058806559655051995
0.004275202205236154 0.0056240607868966105 -0.009492063954416288 -0.012196780071708305 0.002195635699241124 -0.009178169402932033 -0.007953883118713147 0.004396039632522436
0.005887516094651251 0.020500078629002338 0.028755045095262624 -0.006405376431736926 -0.0032633102505277172 0.0008332001823230818 0.008155612554119233 -0.012948351128258508
-0.005207775832960608 -0.011874644247851578 -0.016585868344647692 0.004760870477037425 0.011382856223905446 0.016731945824287726 -0.005162087092530109 0.006560584420724313
0.00484614697565018 0.00396356450789989 -0.007441188862955197 -0.0013334021874254359 0.009296800593087646 -0.0037561055953752903 0.00864552547327779 -0.0002053709724973572
-0.014961205072571804 0.011099730620599706 -0.011923051666039635 0.004788252675452982 0.002187345065247201 -0.004201103604943899 -0.012783837700680733 -0.0017119271970981163
-0.006897509693299148 -0.007692475158910575 -0.005506945171375895 -0.0032440322007843973 0.003349917877816894 0.0010116053859081753 0.015267621510492234 -0.004749410493361584
-0.004623874025724084 0.019622657347959538 -0.007660522484240832 0.01482323435542845 -0.0013063797962939144 -0.0015018464580630237 0.006045528141862013 0.0014085612299302136
-0.005320501902690419 -0.009543744728266197 0.0016271653043757948 0.0030631416340702058 -0.012888416673425869 0.009537243271202115 -0.0037399531647821674 -0.010302717137651045
0.008108389859701524 -0.0008530419197439495 -0.014343744561782057 0.006651447143833599 -0.0026551989656566737 0.005240959430993112 -0.010329481932494331 -0.014497381429331086
0.0027154023585143623 -0.004479669980742346 0.0016006167730968017 0.007915045873096051 0.005271551232638773 0.0016012205741321207 0.00877061338919703 0.002849239679781156
-0.005237596089957853 0.0038671909871561007 0.011677064828487528 0.0001598081089835652 -0.006032988020031718 0.0028445725343471968 0.015341189301924563 0.007315909646102296
-0.013882295486150673 0.0010186583682423743 -0.007802538199159461 -0.001985139030431602 -0.004661793930937201 0.00326562089794433 -0.009538820464646004 -0.0031773218846912255
0.004851718766883363 -0.005442877698035426 -0.006894552604286326 -0.0010038962886332837 -0.0017530761159442753 0.003333976899136707 0.009841738987176576 -0.004942255101363881
0.006421218030799258 -0.009668189225437173 -0.009198238121875377 -0.02497240232651124 0.011012534001287736 0.006382038575547728 -0.0092234557741608 0.005052134307026437
-0.005133669525140893 0.0032481008827515857 -0.013885637696262883 -0.0046093836297538705 0.009494802759111938 0.0009257231119094348 0.006440728802445861 0.007520734152984994
-0.006025391970847463 0.01572650575677534 0.012599872241268763 0.009225436739249767 -0.01266970602978323 0.00748258296427738 -0.013553557467589657 -0.017848911557110637
0.004213049065251696 -0.00896343036744505 -0.000982897315730742 -0.0002832892500194191 0.0031000892613851144 -0.009552670999690321 -0.0016890923878766675 -0.005678821599122847
-0.0024707530960963427 -0.0013591696225030009 0.003416457832135794 -0.027122230919466823 0.004742856064816542 0.012780001033122773 -0.0015045160814070593 -0.0033611171329371676
-0.010039078270365714 0.0014477265223767216 -0.007714431725975064 0.004667731316182931 0.0064830848385556954 -0.003333318596843729 -0.002017295810638444 -0.003551114902640512
0.010323098787904246 0.0005505807308296251 -0.0004280371577809407 0.0021432383260593414 -0.008599728160200331 0.0007447889910488184 0.0052299796823978804 0.0016973512902752376
-0.02332339791283408 0.00458753361115902 -0.005695568008778431 0.002816657589370241 0.003868512044784622 -0.010216486548803328 0.0019788464230783972 -0.010851309757451091
0.010201530829108678 0.004513090551248536 0.0008307731193002084 0.0001410550239812749 0.0078474745999654 -0.007195782747281934 0.020354607973577795 -0.006315539814227407
-0.008749804806530329 0.0035332550057277333 0.0011946771681854524 0.007582379082966206 0.003552916638900608 -0.01091095559668494 -0.005350764492407727 -0.005516512936475514
0.0015644327269524116 -0.011311995927038045 -0.02267768359903681 -0.011045585891935635 -0.006618347817507042 0.00658743731817183 -0.011125592172509939 0.00944965874502447
0.0023473060801878667 0.007144754778405126 0.0034428977434935006 -0.0007084446646327572 0.0004198890160593122 -0.002517948879249052 -0.004752643757942237 -0.0061664935637056745
0.009508123261103774 0.005106651899384897 -0.002922037723248911 0.004079291332689828 -0.010096553505820621 -0.0061388701396816545 0.002761425362078076 0.006871054966327992
0.003032241865541818 -0.011610643144288004 0.014884208388738291 0.00994923729275419 0.01907126968237654 -0.004271829685474492 0.012155122745409117 -0.008736808319808304
-0.006468711826085045 -0.00040960225822015783 0.014049402989690516 0.001701043686800475 -0.029606972589359057 -0.011056960857212465 0.005779250974094764 -0.009293076438999648
-0.0026886972085655336 -0.009980874608274124 -0.0023679044257370516 -0.012780204130234769 -0.00492536493439042 0.0048620714844637555 0.002677369283110209 -0.016054997545640305
