Lab4/trained_rbm/rbm.pen+lbl--top.bias_h.npy (npy, 16128 bytes, 1 tensors)

array f8 [2000]
00000000: d544 b74d c638 7ebf 6a0c 42ec c1fc 6d3f
00000010: 2981 d9d0 193a 763f 1b0a cbed a13d 8f3f
00000020: 3bfc 382b 4731 79bf 0463 2a83 a7ed 7cbf
00000030: 92d0 b20f 2ed4 57bf 2ca0 9e67 3299 6dbf
00000040: 100a 6c62 72b7 7b3f 040d 974c 019b 88bf
00000050: ddbc c7fa 23fa 93bf 6a3f 6583 98b6 54bf
00000060: 3187 3055 64ec 88bf 664e ea7f c160 733f
00000070: ea51 de65 2ff4 41bf e825 e5df 6ca8 743f
00000080: 5eb2 6022 f46b 6e3f 31ec cd88 8384 92bf
00000090: 1f33 1551 db25 983f f576 37f2 5136 6bbf
000000a0: 2ca0 135f 5a69 7e3f b57b bfb1 1426 68bf
000000b0: 607b 03b4 3598 7fbf d92e 07c6 c73b 8f3f
000000c0: ed1a 307f 9e6b 8abf 2cc3 d4dd fd53 59bf
000000d0: 9f41 fcaf c85f 7fbf cebe afb4 38f8 823f
000000e0: 70c1 cba7 3008 80bf a9d2 d3d0 e7d7 8dbf
000000f0: e977 eb88 428c 95bf 379a 2061 c6e3 8bbf
00000100: 78a6 7f76 6dc3 74bf 2779 01a8 cdaf 7e3f
00000110: 2069 d78d 932d 80bf cceb 67da 8b0c 743f
00000120: 364a 9510 e43f 8b3f be51 9f1c 33eb 973f
00000130: 88a7 8ff2 6ed1 88bf a5f7 9af4 a0af 8b3f
00000140: 58f5 c57c fd93 6abf 5e63 f4f1 311d 823f
00000150: b68a eefe 1cff 853f cd1d 31d8 b873 7abf
00000160: eeb2 40bc 97a4 75bf 77b1 9949 08fd 943f
00000170: 1196 2896 7159 923f cc9f 5928 ddd0 79bf
00000180: e78b b1dc d4f4 7a3f ba51 69dc 6905 52bf
00000190: e8c0 31e7 2a18 7f3f b87d e78a 9192 763f
000001a0: 6715 9f53 e9a2 913f b673 fe96 4c5e 9b3f
000001b0: 743d 865f 2fdb 533f 634a 9af9 804e 893f
000001c0: 07c0 d9bc e742 91bf a7da ab87 13ad 75bf
000001d0: 8f50 269c b88b 53bf d63a c198 7b34 7dbf
000001e0: 13cc 7ea7 377f 81bf 1225 fc85 17c5 79bf
000001f0: ad59 db4b 6581 6cbf ba3c 514f 6807 81bf
00000200: 4977 de72 4709 58bf 3fbc 1f65 0515 783f
00000210: 0d2e bd48 f864 7c3f be73 ccb0 f160 513f
00000220: e80e 685e e350 82bf d629 bfd3 50ae 6e3f
00000230: e87f dd10 0925 69bf 7f7c 7f0b bd5a 8e3f
00000240: 9f7b 462a f866 733f 75da 542a c8ea 803f
00000250: fa7a 6658 778c 123f bfbc 8129 4f75 52bf
00000260: d53b a706 cb32 883f b542 b722 3769 90bf
00000270: 87bc c271 f523 91bf 8ac0 a019 2a5c 683f
00000280: 31e9 c65a c8eb 7ebf ba47 5a4c d434 2f3f
00000290: fe5c 1a5d 1a84 72bf e3d3 838b b00b 8dbf
000002a0: 0c27 9a31 00f0 863f b8e0 f342 6d60 29bf
000002b0: 087e 0e7f 74cb 753f c4f5 6404 aae4 693f
000002c0: ffd2 aad3 1486 483f d2c8 25b9 c523 803f
000002d0: 0769 2f2d 6453 763f da71 9635 3e30 653f
000002e0: 8037 fc86 cb47 753f f699 e3a3 0e96 893f
000002f0: c343 9a69 7807 71bf 69de acf5 aff5 7a3f
00000300: c3b1 e29e 0483 8cbf 120b 20ff ddd3 7abf
00000310: eeb7 9542 286d 80bf 1556 945a 14aa 753f
00000320: 9ad6 187b 2331 7bbf 9e19 5596 1195 7bbf
00000330: a732 9c05 2a31 1fbf 7831 c10a 5634 7e3f
00000340: 1c7b 3efe e104 823f 0493 1ae2 f8e6 84bf
00000350: fcb9 ceca 31a2 7bbf 72af 8edc f277 77bf
00000360: 5898 5798 f5fa 7c3f 5eb0 4353 c676 3dbf
00000370: c32f 364a 351e 6c3f 2e6e bd8e ce93 6c3f
00000380: bc83 92ea 08bc 64bf ad14 b914 48f3 70bf
00000390: a83d 71db ae02 81bf c760 d767 a6a3 683f
000003a0: f887 9e98 a336 6abf 0faf a82f b640 72bf
000003b0: 8f59 3463 dc8c 62bf 9095 4014 6f63 5b3f
000003c0: a38d d24a af69 453f f219 8584 aac9 82bf
000003d0: adab 5288 1028 93bf 7ba9 8773 7fa7 76bf
000003e0: 1081 2b53 0792 7f3f 8364 78e6 b1ba 72bf
000003f0: df83 b096 3d21 5dbf 7e73 2bb0 be41 753f
00000400: ac18 8e8b 1a5b 85bf 49a7 7089 c100 66bf
00000410: f122 f179 34be 7e3f c65d b6b9 d5d5 70bf
00000420: b173 745e d6ea 893f 5548 dc73 2e7e 763f
00000430: 8fe5 42ae a33d 71bf c0ac 481a 3ab3 8bbf
00000440: 87d6 b15a c75f 73bf 08f3 4ebb 6457 963f
00000450: 4383 b4a2 7428 8e3f 8e25 b206 5fc0 6ebf
00000460: 9964 971c 6550 523f 9b57 ff1b 7f65 5fbf
00000470: 770b 4ef6 692c 92bf 9bd0 85ae ef4f 44bf
00000480: 95c8 50df 6aad 703f cc89 47b5 79c1 76bf
00000490: 654c d7f6 8e60 21bf 786c 44d6 c8e5 813f
000004a0: 054d 2186 a6e6 3bbf 8eb1 aa35 39ab 90bf
000004b0: b8f9 7546 c19e 8ebf 8d25 b753 8373 813f
000004c0: 9f18 b214 2e88 903f cacc 67a5 da87 713f
000004d0: e016 fb44 5a72 6f3f b1d6 f89a 0364 6fbf
000004e0: 7cf7 8278 6e9f 4bbf 885a 5956 68b5 7b3f
000004f0: 0e06 eaab a446 5cbf c4a2 4cd7 198f 543f
00000500: 78ba b9a0 ee02 73bf 4c12 f379 4c7a 90bf
00000510: 7cc8 a659 831a 973f 1e6e 4cf5 2e9e 593f
00000520: d116 add2 c002 863f 916a 51d5 f61f 84bf
00000530: 65d3 bb28 46b8 6cbf 64be f9d0 7b0d 84bf
00000540: 1208 3aa9 e570 813f 9b67 a1cc fee4 7fbf
00000550: 637e 486f a0c0 81bf 76cd 8eec 1f9f 643f
00000560: b3e5 8404 1b02 983f 60ac 0394 2494 68bf
00000570: 80d0 6c4a a1bf 823f ba62 b9de 2ad2 933f
00000580: a3fb 047c fa5c 68bf 7bf7 25a3 28fe 423f
00000590: 115d 6a53 c847 88bf 7644 868f 2fb5 763f
000005a0: 8098 e36c 15a5 9e3f 11b9 3347 4133 6abf
000005b0: 2c68 cdf6 62b8 36bf 9a54 e55c edab 6b3f
000005c0: 2d82 a0e7 5353 853f a49d 5fd0 c7ac 7dbf
000005d0: a18e c4bc 1b03 21bf 7eb9 56ba 323c 78bf
000005e0: 2abf e097 3bc8 813f 9530 fa14 8909 703f
000005f0: db95 4bd5 61bf 8d3f 1cbe 948e 99a4 933f
00000600: 3ad1 c78f a814 6fbf cd3a 431c e0a6 79bf
00000610: 70a7 5b61 af2e 7abf 5123 1d86 14ea 523f
00000620: 430a b585 28a0 60bf 01e5 222b 5953 613f
00000630: f04f a588 98f7 6ebf 8e9d f3dc 0330 613f
00000640: 6dd3 ac5d 7e75 96bf eae8 6c7c 35a5 8cbf
00000650: 2dc9 0ecb b386 743f 7bda b3c3 e88b 60bf
00000660: 6d1d afd5 ada8 753f 7a12 e212 e6a9 3c3f
00000670: da20 458f 40bc 97bf dbcd a102 c50e 7e3f
00000680: 005b 46b1 1f40 5fbf 284c abbe 6daa 943f
00000690: afb7 1401 730a 803f 5e24 17c7 2a64 83bf
000006a0: 7092 0089 39e9 8a3f 9078 f9ab 089c 913f
000006b0: d53c 2cd3 2bbe 6cbf d0d1 9aeb 516c 833f
000006c0: cf42 3710 f5aa 823f ba06 c67f 89f0 82bf
000006d0: 1e95 7fba 757a 70bf 1780 ff81 568e 563f
000006e0: 7bdf 53e8 8c76 893f 52d3 dcfb 7d73 963f
000006f0: 6c3d 9a01 0a5d 6dbf 33ec b3d6 ef2f 6f3f
00000700: 440e c486 a318 7dbf 3840 8e92 0b1d 8cbf
00000710: 32b8 f6cc 9f1a 47bf 5638 39e1 d8d1 5d3f
00000720: 6ae4 600a 31e5 7a3f 0e88 d4c7 fbf6 793f
00000730: 711b 1c64 63bd 723f 95a2 91c3 040d 87bf
00000740: a0be b5c1 b66a 87bf e174 1ec8 b4c5 473f
00000750: b34b 51c9 0884 57bf ccfa 2d21 5205 90bf
00000760: 3317 0035 1b3f 8cbf 2811 6972 2b2c 5bbf
00000770: 23e6 d14f 58e9 653f ba27 27c6 1410 6d3f
00000780: 38e3 536d ed21 6ebf 5325 2913 c523 8b3f
00000790: 5be9 2279 31f5 653f 68ff a0b0 91c4 27bf
000007a0: 705e a6a2 7b3b 8dbf 8f0d ffa5 edc5 963f
000007b0: 1fd7 d8bd 2c33 733f f676 a7ee 004f 5abf
000007c0: 23f6 3ee1 e6c5 563f 8384 3655 d749 66bf
000007d0: 4863 45da d1f0 6fbf cd32 6431 e465 89bf
000007e0: 22eb 5b96 d196 523f b504 18fc 3b8e 86bf
000007f0: 7c2a 63e4 cad3 743f 49c4 a045 68e7 983f
-0.0073783632501129475 0.003660563235884197 0.005426503031771093 0.015254273480768401 -0.00615051079108669 -0.007062582345178429 -0.0014543962304687558 -0.0036130890338945867
0.006766745390225384 -0.012014398717730142 -0.01950889795437837 -0.0012642373454418662 -0.012169631814746036 0.004730945451814605 -0.0005479079661535023 0.00504343537461114
0.0037135856864749925 -0.018083625054242162 0.023581911872770363 -0.0033218002806582 0.007424691212897055 -0.002947845858201482 -0.007713517931022235 0.015250740748249768
-0.012900579697100645 -0.0015459040799436592 -0.0076597060540425635 0.00926250745212034 -0.00782812130043517 -0.014571963367850787 -0.021042861563607494 -0.013618039931384647
-0.005069186772723826 0.0074918778846877815 -0.00789943005195376 0.0048947775853731106 0.013305455928876869 0.023358152982682283 -0.012118212487582061 0.013518578972590076
-0.0032443953443236744 0.008844747730607668 0.010740496187115905 -0.00645801739580727 -0.005283920971163465 0.020496491901597715 0.0179193256282329 -0.0063027037591396155
0.006581145756260099 -0.0010999234961178565 0.0075914073851068645 0.005510872388611636 0.017223020294996696 0.026726910320224305 0.0012119257572499017 0.012356765382070372
-0.016856785680317923 -0.005292011536531283 -0.0011929800826680247 -0.007130129623034795 -0.008543429183054873 -0.006291477096746394 -0.003479669422499407 -0.008314909859249976
-0.0014670560590057272 0.005879422258643407 0.0069322298621261715 0.0010607109317739417 -0.008943344420010615 0.00374522959279953 -0.0030694176738705788 0.014821507371321594
0.004736871142454384 0.008260310928205098 7.075766015994167e-05 -0.0011266015117390863 0.011815630093137056 -0.016026364797485388 -0.01673873431053299 0.002973634936118745
-0.0075490785933943075 0.00023808566600230595 -0.0045205144721400786 -0.014182452447565502 0.011199952615487806 -0.00019360860594708706 0.005320982993822117 0.0031607933662189686
0.000748405618046094 0.007880730355030261 0.005450621904822712 0.0025864806199946523 0.005195422199688937 0.012493242622849881 -0.004157514916770691 0.006581961958367446
-0.013921772097398205 -0.00654970853247751 -0.00802070096207427 0.005289153582699342 -0.006638659092961819 -0.006733959865704268 -0.00011898821813023185 0.007374130345919709
0.00879837567464175 -0.010206169510021741 -0.006746477604720354 -0.005729626348436644 0.007075270992095005 -0.0004495844070919792 0.0034323731248999414 0.0034884485557265177
-0.002531068243641658 -0.004138261381347136 -0.008305898734902353 0.003007721911426928 -0.0031998820531535764 -0.004456245102612901 -0.002264433330888944 0.0016716561085642102
0.0006534677428543977 -0.009173710030734281 -0.018707521744243106 -0.0055308321538894934 0.00770762311250929 -0.004572577403018421 -0.001777944703242655 0.005189652324330106
-0.010427672752268378 -0.0026859073655217986 0.007505612359701473 -0.004110178818698745 0.01265494800332498 0.005491429763212781 -0.004209174516455318 -0.01352544205390982
-0.004730013587609278 0.021817754681012352 0.0147256004480042 -0.0037538391093831563 0.0011178004664229911 -0.0019162885000602928 -0.017747550638442768 -0.0006198807068771463
0.004071633787179026 -0.005555606291155656 -0.0001325773732064633 0.00873906043903204 -0.00042573514486328484 -0.016278165722427178 -0.01495123859671997 0.00852110480527093
0.016144485486187517 0.004279951177966266 0.0038387072635000935 -0.0038318701188256523 -0.0008429803283644811 0.006764800613004447 -0.0017258270378593984 0.0012548210481303926
-0.00464146818158772 -0.016091532653052007 0.02256207689942656 0.0015635927749774246 0.010747438840222586 -0.009826591858815877 -0.003505837468646455 -0.009791343035629292
0.008516115404976463 -0.007786746320641936 -0.008668187519162268 0.0025172828213386135 0.023445531988931467 -0.0030003275315855643 0.009154567798397517 0.01935641273880393
-0.0029740230822023635 0.0005796144890124333 -0.011855664296759135 0.005543885978469656 0.029926619311389846 -0.0031982684100661037 -0.00034668365588219857 0.0033778797143591667
0.010412841325945521 -0.0072448544724247645 -0.00012979234305376 -0.005916784435085252 0.008682694981046863 0.003915343738878492 0.014525188752894038 0.019182586028533163
-0.003794030401190221 -0.006262660437825485 -0.006392178611102625 0.0011544418743644933 -0.0020294944239663006 0.002114938885907081 -0.0037801722693675474 0.0020980906916638403
-0.02193257757899707 -0.01398698602644229 0.005011274640241131 -0.002019838922588333 0.00528781799488996 0.00043737284693915574 -0.02317906259966738 0.0073383041109198145
-0.0019073781487343733 0.020181383860130492 0.00783243033455591 -0.00946839733195953 0.013140153401829141 0.017196784492960193 -0.003508649440284376 0.009483947756373207
0.009115137631768104 -0.009247850620116228 -0.00402303683947494 0.0013767094424039833 0.012433148231579363 0.021924942491028894 -0.003584403556324103 0.003807037768294852
-0.007103575492013518 -0.013727274332069425 -0.0007050781513748881 0.001820050999316721 0.0065662303587084945 0.006339057462612997 0.004575145956329561 -0.011255299776352682
-0.011434009348448015 0.0007254727099625069 -0.0014352880291610248 -0.0156452973128534 -0.013792240672056621 -0.0016584800993238533 0.0026747441139007995 0.0035477071516866994
-0.003678287243584679 0.013251819274176546 0.002680393817255195 -0.00018133428994992627 -0.014273610974483847 0.022239411598787447 0.004687475940547774 -0.001605749998467796
0.0013899569212151373 -0.002720757076261794 -0.0038990114864358195 -0.012401373631769097 0.0011345907927863903 -0.011013477927010443 0.005084793612875612 0.024320248842006262
