Lab4/trained_rbm/rbm.vis--hid.bias_h.npy (npy, 4128 bytes, 1 tensors)

array f8 [500]
0	0xbfe00ef2ef7ef965	-0.5018248250633347
1	0x3fbc808cf4a9a18f	0.11133652661522418
2	0x3ff49752b1edf91e	1.2869440985082927
3	0x3fe6fcc40200616b	0.7183551825610669
4	0x3fdb41dfda5dd129	0.4258956558690153
5	0x400e4115396e7523	3.7817787634691213
6	0x3fcc94b6d7fc8967	0.22328839822973665
7	0xbfec296c3fd21f50	-0.8800565001010714
8	0xc008e7b1c4ee9119	-3.113132036715012
9	0x3fd6d844f9f504ef	0.3569500390040749
10	0x3ff9ddf8ed3a61ef	1.6166924730988474
11	0x3ff036869b65c762	1.0133119650094717
12	0xbfd06ac1ae7f7f0a	-0.2565159038622232
13	0x3fc74ceb968eb3eb	0.18203492022931242
14	0x3fc30a1a2e15d68e	0.14874579668292082
15	0x3fe65c1cf6c1ff69	0.6987442798126554
16	0x3ff127fa555d6f21	1.072260220963422
17	0xbfdd7d008a0baf6a	-0.46075452309627585
18	0x3fdbe1c2136b5ab6	0.43565418144627743
19	0x3fd8da9e6963278b	0.3883434323475902
20	0x3ff1b3a17933069f	1.1063551649425916
21	0x3ffefab98426deb6	1.936212078302487
22	0x3ff804717ed09548	1.5010848001196155
23	0xbfc16380c86cbca1	-0.1358490923534861
24	0x3fff05a5f70dd914	1.9388789797354251
25	0x400bd14511c2576e	3.477182520621617
26	0x3ff2b702f80c846f	1.1696805657777778
27	0x3fe63757cd15f8dc	0.6942557340223874
28	0x3fc852f530aa6bd4	0.1900316703439261
29	0x3fe728099e2bcebc	0.7236373986510993
30	0xbfeed96c7ae8df1d	-0.9640409851626576
31	0x3fe21f45048bb0fc	0.5663170899183849
32	0x3ff7d1a40928ecd6	1.4886818273360425
33	0x400eac24bc207893	3.8340544412049637
34	0xbfd3f879b7c2e6a3	-0.3120407385391479
35	0x3fd0fb862bda4d8f	0.26535181314940187
36	0xbfc5e944c1017e60	-0.17118129181015984
37	0x3ffcd6c86efc8ee3	1.8024372420704189
38	0x3ffce52c9253076f	1.805950709895537
39	0x3ffa1d4b5ebef324	1.6321519566547034
40	0x3ff171735c401b66	1.0901979068309742
41	0xbffaee4f3d3c9854	-1.683181037145478
42	0x40048501b0555c28	2.5649446273851204
43	0xbfcdd440e74d9a40	-0.23303996366594681
44	0x3fdd4c50bb89b6d4	0.4577829200196508
45	0x3fd05e566d8404ba	0.25575791067974374
46	0x3ffa1dba4a5d248d	1.6322577385747394
47	0x3ff00a0835207d7e	1.0024492335577118
48	0x3ff66b1be759d4b1	1.4011496579308125
49	0x3fd15a32ef84e705	0.2711303080610466
50	0xbfb4c6aea20f072e	-0.08115664917479812
51	0x3fe89e793b85d16f	0.7693449175408612
52	0x3ff641fb99af002d	1.3911090853944288
53	0x3fd86d1882ab1c5a	0.3816586757715804
54	0x3ff4f067540d487c	1.30869229157227
55	0x3fed66acad27a29f	0.9187835103922061
56	0x3fcbbc06286f0b6d	0.2166755387716778
57	0x400611479712142f	2.7584373285667634
58	0xc002637723df60a3	-2.298567085508766
59	0x3ff5b57e4a4c54b3	1.3568098928711094
60	0x3fd45c22da2d3d4a	0.31812354379959074
61	0x3feb0e5bc4b44766	0.8455027429465474
62	0x3ff7e65e9596b053	1.4937425463968068
63	0x3fcfdf2b5a6a5023	0.24899808802422382
64	0xc0023aa516b34cf4	-2.2786351941555214
65	0x3fde0c1e01fd9abb	0.4694895762863031
66	0xbfe5991b02800b62	-0.6749396370727079
67	0x3fcbfd8cc70eb07e	0.2186752292594782
68	0x3fdccb8abdb38373	0.44992321515569883
69	0x3fe51818394e6219	0.6591912383328832
70	0x3f825b8641c04264	0.008963631516992261
71	0xbfaecdb4da419272	-0.06016316570529491
72	0x3fbb8d65844d0eaa	0.10762629013066297
73	0xbfeb3862347d1915	-0.8506327653092592
74	0x3ffd1670e2baee80	1.8179787499092583
75	0x3fe79474327739b5	0.7368718133600881
76	0xbfe3a8385481e97c	-0.6142846727882865
77	0x40095d3753e37509	3.170515685442869
78	0x3fe55b742033246d	0.6674137715246055
79	0xbfe778c23dc341c0	-0.733491058950726
80	0xbfe51494cda8a2b1	-0.6587623612186545
81	0x3ff95589bdcaf56b	1.5833833135396513
82	0x3fe6b74e96ad29b1	0.7098763411425378
83	0x3ff5d9f2f2b9e283	1.3657102090348026
84	0x3ffc308a06c5a8fe	1.7618503822837392
85	0x3ff599c26ec5ed70	1.3500389411045397
86	0x3ffe9685d5a5d476	1.9117487283340586
87	0x3ff60be4bb413cbb	1.377903682197753
88	0x3fd12ea4e1686bd7	0.26847192776193424
89	0x3ff54732089bbd76	1.3298817001594592
90	0x3fe50751cad416f3	0.6571434937947899
91	0x3ff2d35918c0ca3b	1.1765986411015905
92	0x3fe6125b63a820e3	0.6897408434315618
93	0x3ffc1a6658e0f688	1.7564452621294624
94	0x3ff118dd0ab03c16	1.0685701768413813
95	0xbfdf2529d2ed6aad	-0.48664327238445076
96	0x400162260bd58558	2.1729241299187088
97	0x3fc5faa4d1b2138c	0.17171154250186438
98	0x3ff08143945108f2	1.031558589326377
99	0x3fdfd42cca7e8fc2	0.4973251321300688
100	0x3fe3e038cbed16c2	0.6211208327228734
101	0x3ffa98e1da9064b0	1.6623247659356757
102	0xbff5a9e5331aac86	-1.3539783474214189
103	0x3ff6c4a5fbaebd33	1.42300985635286
104	0x3fc0e3f0af33c732	0.1319561820487763
105	0x3ff0d372ff14b5dc	1.0516233409974722
106	0x3fd536d9ec1029d1	0.33147285512009456
107	0x3f94f475dca93b3c	0.020463792412836343
108	0x3ff1b8e1d7175d54	1.1076372529986047
109	0xbfd6eb7f48d872c7	-0.3581236087209558
110	0x3fe124a0c971d722	0.5357212004152851
111	0x3ff6983763f38507	1.412162199434819
112	0x3fd32b6740255fd5	0.2995241285730093
113	0xbff1f5a855ede54a	-1.122474990521669
114	0x3ff1ca52a630bdae	1.1118952266514088
115	0x3ffe7f529c55812e	1.9060846430584877
116	0x3ff29af0e0d7007e	1.162827375679654
117	0xbfd3d515a7837cf2	-0.3098806510806319
118	0x3ff19086c67cb53b	1.0977847817806168
119	0xbff716f552482b9e	-1.4431050504815413
120	0x3ff89fcefb431a5d	1.5390157523085215
121	0xc006c7d28c6614a7	-2.847569558015113
122	0xbfe2bc8c1b6e9bef	-0.5855160270483547
123	0xbfe280a1c705e016	-0.5782021414916041
124	0x3fed229e7632bf68	0.9104759510573617
125	0x40054be91d9e1920	2.662065726649544
126	0x40103ae5f7e73c80	4.057517884720369
127	0x3fd450bc41bab633	0.3174276964080917
128	0x3fe3b19d852989a2	0.6154315567803688
129	0x3ff82cbff412b274	1.5109252485373448
130	0x400577a5afa9c63d	2.683421490067103
131	0xbfcf1873416f2fa6	-0.2429336614135284
132	0x3fc14b5b49738eaf	0.1351122006081957
133	0xbfd875a06fab15df	-0.3821793642531172
134	0x3ff2a9ed3ea378e8	1.1664860197848217
135	0x3fe6f458cb423a13	0.7173274965187509
136	0xbfffd522f8e195ea	-1.9895353052064544
137	0x3feab31855c41dfd	0.8343621897810746
138	0xbfadc02c738c6943	-0.05810679350379868
139	0x3fd4be82722d1c62	0.3241277804376691
140	0x3ffd0d571f2c23f9	1.8157569139168557
141	0xbfc14559ad2c66f3	-0.13492890315756476
142	0xbfed993959b7885d	-0.9249541046413118
143	0x3fffb21a505d5952	1.9809821261638558
144	0x40012173c1bc6abf	2.1413340697884844
145	0xbfe5b0ef0cd7c152	-0.6778483630023777
146	0x3ff010a3506cf372	1.0040619985222432
147	0x3ff5d4521bfb970c	1.3643361180379001
148	0x3fc4055c610d6d2b	0.1564136003388311
149	0x3ffd154f1effbf60	1.8177024088763218
150	0x3fe7f65929e11d29	0.7488218133884504
151	0x3fed3eb12631cddc	0.9139028306948904
152	0xbfb8ba7f4444d84f	-0.09659572045060937
153	0x3ff8ab5cac9106f0	1.5418364277724628
154	0x3fe40bb3b20b198e	0.6264284589204168
155	0x3fbe21e3a065a144	0.1177046076387614
156	0x3fe7c8392c1c631a	0.7431913243809476
157	0x3fd241a130f3a9eb	0.28525571613741246
158	0x3ff8546c788bac12	1.520611258393505
159	0xbfc3fea03c18db61	-0.1562080663149699
160	0x3ff8b91ed2fed091	1.545195411873497
161	0x400bf2a781d00dd9	3.4934835569017477
162	0x3fe7b4b3eef58463	0.7408084551972361
163	0x3fd5083cc01afba8	0.3286277652768441
164	0x3fdadc57f83bed17	0.41969870797739034
165	0x3ff7a45debebd5f7	1.4776286330865085
166	0xbff582aeafd94032	-1.3444048756682716
167	0xbfebb9578f6cfbb3	-0.8663747597964772
168	0x3fe7f77cc7b18372	0.7489608669530823
169	0xbfcf2f559ba27e3f	-0.24363203143455966
170	0x4003887268a27940	2.4416244673331278
171	0x3fe562b133e167d6	0.6682973874369462
172	0x400ce68c6b1a300a	3.6125725142828786
173	0x3fea0b2a77754dd3	0.8138630231064162
174	0x3ff090ff7dc28a64	1.035399905442909
175	0xbfb01ae9ba557d39	-0.06291065978210932
176	0x3feddfde2e3c550a	0.9335776236572724
177	0x3fd819a5d8b40298	0.3765654197923509
178	0xbfd591b4de970b29	-0.33701822030359324
179	0x3fdeac84cbb11d32	0.4792797078302612
180	0x3ff82b886d82f6f5	1.5106281545444606
181	0xbfc15aaa886bbae8	-0.13557941113636862
182	0x3ff391c011dc9d20	1.223083562634038
183	0x3fe785ebe5254b5f	0.7350978351117695
184	0x3fee0d31c9934442	0.9391106545464327
185	0x40019b6b256e6775	2.200887958938376
186	0x3fe117d51c380761	0.5341592360639248
187	0xbfd51713ff0e8dc0	-0.32953357608695555
188	0x3fecde5830462c01	0.9021416609624567
189	0x400804b60123f639	3.002300270948379
190	0xbfd6fd0b867fa6b6	-0.35919464239723753
191	0x3fefb0c621e18722	0.9903288518655453
192	0x3ff50ddf55878c13	1.3158868161197048
193	0x3fe1d4e676be6db2	0.557238799974064
194	0xbfd2c9fd7b266ef5	-0.29357850099925936
195	0x3fe228a19cf57a35	0.5674598756411969
196	0x400c7d3131c071ba	3.5611289870123217
197	0x3fa4f337212d8c15	0.04091808586124316
198	0x3feb2c1bdd2451eb	0.8491343802621122
199	0x3ff6e41c9d0acd6d	1.4306913504086325
200	0x3ff37ecf645f35c7	1.2184595032480148
201	0x40006ab39ddb5f9b	2.052100404031035
202	0x3ff2d1d5b5ef94ed	1.1762292010183117
203	0xbfcae0934296bdf5	-0.20997849227340706
204	0xbfae6d18886f6b0d	-0.05942608514279444
205	0x3fe1cb54d5340836	0.556070724880789
206	0x3fec97b6e4f21e84	0.893519827995036
207	0x3fd91574b57085b3	0.3919345638151654
208	0x3ff7bc63dddae7ca	1.4834936777319734
209	0x3fb67a955b904ffd	0.08780797467653652
210	0x3ff179f24328f007	1.092272054999741
211	0x3fce2b4321e19933	0.23569525865895855
212	0xbfe34433349967e5	-0.6020751979187905
213	0x3fd3dab6b564e031	0.3102242251802663
214	0x3fe2fe6aede167e8	0.5935568472007136
215	0x3ff0e823f461f402	1.056674913997313
216	0x3fe59d22891067c4	0.6754315068276289
217	0x4001aa822fe7bd4a	2.208256124744058
218	0x40084d6e1d46c84e	3.037807682726487
219	0x3ff470f219e0741d	1.277574635583057
220	0xbfe96500d7d5a2fd	-0.7935795035856185
221	0x3ffd3f5066b5c98c	1.8279575359452762
222	0x3fdaf82eccac9d92	0.42139787662241546
223	0x3ffc152bfd80b917	1.7551689054922173
224	0x3fe863249c158904	0.7621024178045279
225	0x3ffcf339c4b5b5c1	1.8093812641121618
226	0x3ffc89403db8e34d	1.7835085307144312
227	0x3fe11b61ab94a42a	0.5345924712356738
228	0x3ff14e503ea6453f	1.0816194960828651
229	0x3fee154f3709858b	0.9401012492127604
230	0x3fdb5607bcb86293	0.42712586812698666
231	0x3fe5bc39f943f401	0.6792268627610839
232	0x3ffa311504dd742b	1.6369829359093824
233	0x3ff60af78bc9722f	1.3776774845529294
234	0x3fd6f64c0ef5f7ca	0.35878278218285387
235	0x3fec452ab6046d45	0.8834432177567711
236	0x3fe777aebbcd1da6	0.7333596866600842
237	0x3ff54a4e567998a6	1.3306411149911042
238	0x3fd1132062be3e02	0.2667923893249907
239	0x3ffcfeb67938b931	1.8121857390611462
240	0x400e99fcab82b6f5	3.8251889609590486
241	0xbfdd13e300b723c2	-0.4543387896524643
242	0x3feba8d55cfa3392	0.8643595519985061
243	0xbfd10a7370e486ad	-0.26626287483859806
244	0x3ffa04806855b0cb	1.6260990214896534
245	0xbfea2df4bd68db9d	-0.8181098651319761
246	0x3fd7537da144b343	0.36447087048400223
247	0x3ff547821ebcae8f	1.3299580765405243
248	0x3ff0d13874be798b	1.0510792312921662
249	0x3fd7fdeafcec9b38	0.37487292003281736
250	0x3ffd46f229d11a52	1.829820788714319
251	0x3ff5f167ecce297d	1.3714370012481532
252	0x3fe445da8409f340	0.6335270480045452
253	0x3ff267e23bc008ae	1.1503622373570965
254	0x3fe5278a0d7aac70	0.6610765708222868
255	0xbfa6f4e343d52d06	-0.04483709528957473
