Lab4/trained_rbm/rbm.hid--pen.bias_v.npy (npy, 4128 bytes, 1 tensors)

array f8 [500]
000000 5e 8e 19 ea b0 be c9 bf 60 14 11 d2 20 08 d2 3f
       -0.20113192968993848 0.2817461062844071
000010 5e a3 c4 f2 e6 d2 c1 bf 98 0f 15 fc 1c 69 8e bf
       -0.13924872259056092 -0.01484892505926165
000020 ac e2 0c a9 77 6b ca bf 05 9b db 60 e5 ea bf bf
       -0.20640464548502757 -0.12467797865575043
000030 87 82 8f fa 17 dd d8 bf 9f 0a cf cb 5d 60 ad bf
       -0.38849448651129886 -0.057375842217443955
000040 44 ed 73 85 ce d3 be 3f 24 e6 66 99 f6 a0 9c 3f
       0.12041941412092166 0.027957776177322327
000050 40 19 b1 ec c1 b4 9a bf 4a a9 97 eb a4 48 c8 3f
       -0.026080160209198455 0.18971692565475912
000060 a2 a1 22 67 6c e2 be 3f 9b 66 12 7b 21 1d d2 bf
       0.1206424476428141 -0.28302800196397876
000070 6b 6c 4c 84 ef 82 c7 bf 55 3c 82 31 6e 79 5e bf
       -0.1836833377827561 -0.0018600059611662185
000080 ad 50 89 8a c4 61 c3 3f 8d c9 91 ff 22 50 c5 bf
       0.15142113460990939 -0.16650807837465856
000090 2e 5c 19 33 87 75 c7 bf 13 83 6b a7 61 58 b2 bf
       -0.18327417368956972 -0.0716610940685423
0000a0 39 fc 64 74 68 2e c6 3f 2c cd fa 73 18 94 9c 3f
       0.1732912605602637 0.027908689574087805
0000b0 f7 63 aa 44 ce 6f c8 3f fe 15 63 52 4f e7 a0 bf
       0.1909120402604285 -0.03301475411130282
0000c0 af b3 38 3a 5e 74 cc bf 73 59 d6 eb ad ab d4 bf
       -0.22230127184721257 -0.3229784777735382
0000d0 00 fc f9 fc 8f 9b 91 bf a8 8f f4 ed 73 84 cc 3f
       -0.01719498616739301 0.22279214018737759
0000e0 19 32 85 20 80 d3 ac bf 81 e9 af 48 53 a0 b4 bf
       -0.05630112072922006 -0.08057137035931385
0000f0 49 ec d0 95 c2 96 9f bf 75 1e 29 19 ea b8 b1 3f
       -0.03084854163556042 0.06922782053254102
000100 16 c2 db 43 df 41 c2 3f 9a d9 39 47 e8 4f c6 bf
       0.14263525784873882 -0.17431357839423073
000110 09 f1 f1 ec 94 9a a3 bf 4e 98 2c 1a 87 0d ae 3f
       -0.038288740085564106 0.05869695848950639
000120 9a 37 60 f6 a1 79 ca bf 15 da 3d 40 91 9a c1 3f
       -0.2068369343764374 0.13752952229306517
000130 de 52 43 16 53 8f c0 bf dc d6 bf 4a d3 93 9d 3f
       -0.12937391840991713 0.02888422149404489
000140 b8 b2 26 1c 90 85 b2 bf 4e 6f 9f 3e 33 6d cf 3f
       -0.07235050856861391 0.24552002485040209
000150 af 82 f5 0f 52 e5 9c bf f7 71 bf f4 81 70 b5 bf
       -0.028218538497983555 -0.08374798035897145
000160 f6 2b 82 8f 6f a1 e4 3f 78 c2 16 5c 6a d9 de 3f
       0.6447065165424408 0.48201998704011073
000170 93 24 21 0d 9f a6 ba bf 55 9e 2b 40 83 26 d3 bf
       -0.10410493917983592 -0.2992256285346902
000180 20 2b 0c a4 5b b5 c8 bf 69 25 47 73 62 60 b5 bf
       -0.19303460607655953 -0.08350196184541904
000190 de 10 46 06 d5 30 dd 3f d5 ee 48 4b a6 0e c1 bf
       0.4561054765001823 -0.13325956989307622
0001a0 e6 18 4d 1e 97 b5 b4 bf 82 b4 8c 81 8c e2 ac bf
       -0.08089584817671244 -0.05641593057075857
0001b0 d9 e7 26 06 97 ae a4 3f 83 d7 c9 67 31 78 ae bf
       0.040394515515302216 -0.05951074974011219
0001c0 51 3e c8 1d 61 10 9d bf fd 3b ed 17 0c c5 d4 3f
       -0.028382794802438053 0.3245268090876719
0001d0 e5 75 8a 15 83 0b ca 3f 27 5e 1a 83 07 07 b7 bf
       0.20347631980705141 -0.0899510092807466
0001e0 d8 40 25 dc 2c 22 b8 bf a6 b2 d2 6a 70 fc ab bf
       -0.0942714726891184 -0.05466033271782082
0001f0 65 12 83 16 9c 79 c6 bf 95 77 de dd b2 6e ba 3f
       -0.17558623408526156 0.10325162808154993
000200 48 5b e1 5f c1 47 c7 3f 30 7c 5d 39 36 56 c2 bf
       0.1818773000875018 -0.14325597573312754
000210 b2 9b 8e d3 38 8a cf 3f 39 76 dd 4d 96 e0 ca bf
       0.24640570001539924 -0.20997885515218842
000220 03 fc c8 3c e0 8a 97 bf 3b c8 ed ec e7 96 ce 3f
       -0.022990707120921893 0.23898028439322325
000230 7a a5 c4 50 9d 38 c2 bf 8f 6a a0 00 a8 4d 8d 3f
       -0.14235273784406016 0.014308273810504061
000240 0a 1b de de f2 9c cc bf a4 47 4f a6 38 bd c8 bf
       -0.22353969461638484 -0.19327457542982274
000250 77 2e c7 a1 f4 17 c4 bf cb ec a0 15 52 68 ab 3f
       -0.1569810666973017 0.053530278339587754
000260 99 ab a8 b4 21 da ce 3f 5a b2 f4 50 1a 73 ce bf
       0.24103185006364639 -0.23788765862390698
000270 fd 7b 7e 0b d1 e3 ad bf 2f 65 6c 98 ad ea d0 3f
       -0.05837872758205973 0.26432361493205553
000280 42 63 29 15 6c 50 93 3f c5 76 84 41 1c 7c 9f bf
       0.018861473838430294 -0.0307468810070677
000290 05 90 38 41 55 41 a5 bf dd 82 20 d9 91 77 bc bf
       -0.041514076434651805 -0.11119948912574835
0002a0 bd 9e 75 0c 74 7f d0 bf 3b d4 bf 66 32 d2 99 3f
       -0.257779133002696 0.025215899964639226
0002b0 fe a5 93 b7 b7 8e 4e 3f bd ae 85 25 52 37 b7 3f
       0.0009325406128059541 0.09068787971562649
0002c0 d9 b4 c8 76 19 17 cd bf e7 d1 fd 8d 51 04 b8 3f
       -0.22726743984222855 0.09381589619244544
0002d0 43 a5 77 71 e4 8d a1 bf b8 92 6d 95 29 f5 c2 bf
       -0.03428567776775051 -0.14810676380434074
0002e0 65 a7 62 d9 e9 0f 47 bf c1 52 35 d2 49 30 c0 bf
       -0.000703801330719883 -0.12647364391400198
0002f0 86 51 9d f0 07 7f cf 3f 1a 03 dc 40 1f fe e1 3f
       0.2460641789317714 0.5622707621369927
000300 51 e1 1e 99 e7 1d b5 bf fe 98 c7 d5 28 28 c8 bf
       -0.08248755920692942 -0.1887255710455022
000310 22 44 ba e8 f3 53 a5 bf 36 cc 3d 5e cd 84 98 bf
       -0.04165613380349266 -0.023944100262678535
000320 25 23 53 62 35 14 c8 bf fa 2d 4b 55 c2 54 be bf
       -0.18811671544087818 -0.11848082144131658
000330 b8 d5 e1 c5 6f 0c 99 bf 16 7a d8 be 0d d4 c1 bf
       -0.024461504414338114 -0.13928386515267793
000340 ac 6d 43 14 26 23 d8 3f 13 3b d6 ca d9 48 c1 bf
       0.37714530924651046 -0.13503572849409604
000350 97 af 33 47 33 36 bd bf ef 55 9d 38 ee c4 bf bf
       -0.1141082810242423 -0.12409867174331855
000360 9b 18 4b 8d b1 e9 a7 3f 98 1b 9d cd 03 0b c0 3f
       0.04670481538555401 0.12533614673358495
000370 f9 dd 54 f9 8a 2c c0 bf 10 b8 50 44 d2 46 a5 bf
       -0.12635934042349087 -0.04155594905783755
000380 da b2 f2 39 31 cf 8f bf 31 63 58 41 4f 47 e1 3f
       -0.015531906681951414 0.5399547840380362
000390 94 03 92 2c 3b 22 be bf 5c bf 2a 7f 8b d9 a3 bf
       -0.11770982587951401 -0.03876911094027832
0003a0 fd 6e 76 e7 f2 05 d0 bf 53 45 aa d9 76 e8 b5 bf
       -0.25036308864376605 -0.08557837308969356
0003b0 19 e1 16 e1 35 7e c1 bf 3c 3f 49 aa 7a 85 b4 bf
       -0.13666413775150302 -0.08016173035980229
0003c0 75 bf 66 5e 0c 8b be bf 65 42 a7 ab 21 d0 b3 bf
       -0.11930920891495396 -0.07739458504443915
0003d0 37 51 71 11 48 3a b8 bf 4a 48 e0 7a b4 5d d6 3f
       -0.0946393053612312 0.3494692993127769
0003e0 72 0e e9 cd 8e 48 b8 bf 1a 02 b4 af b3 e6 c7 bf
       -0.09485714461430364 -0.1867279632497379
0003f0 a7 f2 8a 3a 56 92 c1 3f a2 b1 91 a7 27 ff c1 bf
       0.13727834566625072 -0.14059920961461808
000400 59 39 6a 81 18 f6 bf bf 6e ff 15 75 14 53 cb bf
       -0.12484887275261282 -0.21347289769255035
000410 80 4d 84 b1 83 2d b9 bf 3b 7d a5 b6 92 d6 b9 bf
       -0.09835074504763064 -0.10093037566320089
000420 f0 06 9b be 7d 45 9a bf af 71 5d 9b 19 18 e1 3f
       -0.02565571285118201 0.5341918978188483
000430 2f 49 69 94 37 7d c2 3f 25 2e 31 ec 1d 6d b2 bf
       0.1444463228859347 -0.07197749153527207
000440 5f 6a dc 3c b1 7b ce bf 7d 54 49 9c 20 51 b3 bf
       -0.2381497904942362 -0.075456655650969
000450 c9 0f 8e 28 8b 79 8a bf a3 48 a5 26 67 b9 c6 3f
       -0.012927138495577044 0.17753304850572701
000460 5b 8b 50 f9 1f 60 ce bf 33 98 26 3f 9d 35 ba bf
       -0.23730849908414595 -0.1023805884529743
000470 0c 25 fb 80 22 29 cc 3f ef f2 bd 2c 27 e0 d1 3f
       0.22000533388044408 0.27930621499380853
000480 c1 ea 6d 95 45 c9 8e 3f 97 15 9d 31 2a ed d6 3f
       0.015032333014223355 0.3582253918178479
000490 f7 05 50 ae e9 db b5 bf 50 95 bc c8 38 a9 e4 3f
       -0.08538685327223293 0.645656959594513
0004a0 ed 20 65 2a f0 45 d8 3f ea b0 c8 57 26 e1 b3 bf
       0.37926868572368627 -0.07765426295435743
0004b0 40 e3 69 d9 b3 58 c1 bf 93 09 0a 28 2b ce ae 3f
       -0.13551948657893753 0.060166691434477525
0004c0 ea 5b 5f 4d 7d c9 c6 3f d8 04 fc 97 b8 00 a5 3f
       0.17802397039369505 0.04102112632063787
0004d0 39 b7 90 44 6c a6 c8 bf 6b 9f 19 ef b5 ff a5 bf
       -0.19257882450022537 -0.042966542660734706
0004e0 26 ad ff 97 44 97 a8 3f 0c 6a c0 c0 fc 3f b7 bf
       0.04802908282712286 -0.09082011895990422
0004f0 3e 60 e2 86 19 34 d3 3f 05 a7 ad 13 86 82 9f bf
       0.30005491421025343 -0.030771346045560772
000500 f8 a8 3a ec 3e 66 b4 bf f5 71 ab b3 4f 96 d0 3f
       -0.07968514697373397 0.2591742758357037
000510 28 d0 43 f0 bf 98 b1 bf 78 17 bb df 5b 09 d1 bf
       -0.06873702636568224 -0.26619622086251793
000520 7f f4 5f 79 6c 62 c2 3f 90 74 66 10 a4 24 b5 bf
       0.1436286537790785 -0.08259034538646604
000530 e2 b7 e0 db e3 ef 98 3f cf bc 37 1e 04 bc b2 3f
       0.024352608008648143 0.0731813977979414
000540 b7 ff 8c f4 ad 42 c8 bf 71 b8 94 f5 4d 62 c7 3f
       -0.18953489724117187 0.18268751612908177
000550 8a cf 66 ce 0b 17 a4 3f 1b 4c ac 28 9c 15 c4 3f
       0.039238327928074204 0.15690948472965335
000560 16 86 0e c8 c2 40 d5 3f 60 13 45 22 13 e2 d2 bf
       0.3320776895216978 -0.29504850718176634
000570 d1 a5 4e 41 ac 63 da 3f e4 76 53 9d 1e 79 b4 bf
       0.41233354928644156 -0.07997313824622726
000580 08 9c d7 4f 9f b5 96 bf 31 f6 d4 af 90 29 97 bf
       -0.022177209137137083 -0.02261949608986508
000590 2f a1 5b 27 e9 26 b3 3f fa 62 76 a3 71 c6 e0 3f
       0.07481248103033943 0.5242241089464124
0005a0 88 29 5b 4e dc c8 a1 3f a5 fc 82 3c 6b 80 a6 bf
       0.03473556953902618 -0.043948508392980735
0005b0 b5 d1 d3 dd 8a 17 7a bf 71 23 54 25 70 9f c0 bf
       -0.006370108077352323 -0.12986566374481925
0005c0 a7 95 83 e5 a8 ae b4 bf 46 e6 28 3b ba 8f aa bf
       -0.08079009631509014 -0.05187780353703579
0005d0 81 f4 5c 2b ad 0c 9a 3f 7a ec 12 de b6 4b b6 bf
       0.025438981792138996 -0.08709280893065055
0005e0 e4 7a de 98 10 74 b3 bf f0 73 8a 8d 09 8f bc bf
       -0.07598975879816866 -0.1115575762327834
0005f0 c3 8c 57 04 a7 24 d8 3f 9f a4 b2 6a c3 41 c2 bf
       0.37723708557150476 -0.14263193807463367
000600 ab f7 d4 45 a6 83 bf bf 7f 17 89 52 0d 5a a7 bf
       -0.1231025619972274 -0.045608917546402054
000610 c0 a5 82 a6 77 e1 9f 3f de be 1b 14 03 3b ca bf
       0.031133527315125198 -0.2049259041009383
000620 17 cc ed e8 6d 4c bc bf da 09 57 5f d3 91 b0 3f
       -0.11054121910801516 0.0647251231921823
000630 97 71 ef ec aa 3f dc 3f c9 27 5b 1f 15 bb b5 3f
       0.441385966665416 0.0848859025528831
000640 00 c8 44 4e 73 86 b6 bf 6a 8d 69 c6 55 35 c8 3f
       -0.08798905049187056 0.1891276568231704
000650 5b 13 7e 9b 73 47 b4 3f b3 60 07 3c 26 7b ba 3f
       0.07921526476100153 0.10344161000773759
000660 a2 c0 a0 c1 46 c4 73 bf 66 24 d4 4b ce ff 9b bf
       -0.0048258556289938765 -0.027343009355750424
000670 6d f7 1b 03 0d 41 b3 3f 05 2c aa fb ff 05 bd 3f
       0.0752113468733719 0.11337280172499227
000680 3f 84 5a 51 8c 4b bd 3f 4d db 9b f1 16 09 ac 3f
       0.11443402277156255 0.054756848328841735
000690 b7 95 8c 7a 38 e7 bd bf b0 a8 80 ea 25 f3 b5 bf
       -0.1168093966667446 -0.08574139571342942
0006a0 09 ac 4e 8d fc 88 a1 3f f7 73 6b 4c 6d be b7 bf
       0.034248249291827966 -0.09274943462101236
0006b0 e3 05 fe ec cd 0b 72 3f 90 29 a6 2e 2f 9c b9 3f
       0.004405788800683183 0.10003943337338783
0006c0 6a 4a 81 99 f9 95 c1 3f 65 fb 23 da 72 6a cd bf
       0.13738937373507848 -0.22981105471987032
0006d0 24 a4 39 20 ae 70 a6 3f eb d7 1f 8d d7 34 b0 3f
       0.04382843154309793 0.0633063048879589
0006e0 19 57 f2 6e f4 eb c0 bf 15 ea 7c b6 d3 8d ae bf
       -0.1322007695895813 -0.05967580416332311
0006f0 47 01 27 c6 b8 2f 89 bf f2 fd 56 2e 05 9c 9a bf
       -0.012298053309564806 -0.025985794976575556
000700 b6 c7 48 f3 62 d8 b2 bf d6 a0 7c 14 f9 bb cc bf
       -0.07361429633672753 -0.22448647976239638
000710 eb f8 cd d5 9c 2a d7 3f e2 12 40 e9 0e 7c be 3f
       0.36197586898187123 0.11908047861659157
000720 13 8a 68 78 06 51 82 bf 5b a9 5a aa 0b 88 df 3f
       -0.008943605947085797 0.4926785625090326
000730 f6 d1 2a 1c 7b cd c2 3f 4b 05 7e 9e 2c 69 88 3f
       0.1468957793746452 0.011919354044723681
000740 4d 13 4b a3 63 a6 a6 bf 70 46 47 d7 3c 6f b8 bf
       -0.044238198931941676 -0.09544735198803678
000750 75 c7 83 24 e0 70 a3 bf 1d fd ba 89 c3 c4 d8 3f
       -0.03797054715859264 0.38700951051937854
000760 f6 df 44 0a 32 ba b7 3f 45 4d 8b 8b a8 ef c7 bf
       0.09268486738881151 -0.18700129331282703
000770 93 5e d6 e2 b9 8b b7 bf bc bc b0 5d bb ff c3 3f
       -0.09197580135366427 0.1562418181870039
000780 9f 78 8f 87 e8 ec b9 bf bc cc a8 8f 8d 7c bd bf
       -0.10127118405896106 -0.11518177754696785
000790 de 0e ce c3 fe 4a da 3f 9c 87 1d 1a a0 6f 89 bf
       0.41082734223912876 -0.012419939801194428
0007a0 4f 09 a9 62 eb a1 a2 bf 44 35 6c 9f 4a f9 d2 bf
       -0.036391597550862735 -0.29646554535505154
0007b0 38 68 75 78 3f 75 cb bf 11 76 3f c9 e4 01 b7 bf
       -0.21451562291878346 -0.08987264550474829
0007c0 0c d7 62 f5 e0 15 ba 3f 9a b8 4c df a7 31 bb bf
       0.10189634314414436 -0.10622643663075096
0007d0 f2 b3 07 d6 d9 90 c4 bf 80 bd 2e dd af 7e bd bf
       -0.16067049933135952 -0.11521433973279294
0007e0 f5 e3 a4 1e 9e 9e bf bf 7e 14 ed 00 4a 1a b2 bf
       -0.12351406334063582 -0.07071363947496143
0007f0 59 e2 07 f7 39 0f e3 3f 70 a1 88 ea f7 3f ba bf
       0.5956086945362343 -0.10253858066483246
