Lab4/trained_rbm/rbm.hid--pen.bias_h.npy (npy, 4128 bytes, 1 tensors)

array f8 [500]
00000000: 756f 93ec a5dc 643f cd64 1502 358b 903f
00000010: c9e3 20ac 1540 883f f3f7 8294 7904 803f
00000020: a5a1 da1b fd23 853f 2add 8bd8 d96f 9dbf
00000030: 2e21 bd02 a65a 58bf a125 ff32 0844 923f
00000040: 2889 56e2 fa79 73bf 92ed 6c49 9bc0 65bf
00000050: b016 4f2e 9440 92bf 4d24 c7bc 53ca 443f
00000060: 5e03 76d1 cb9b 6fbf 8304 27da 21ce 823f
00000070: a9b6 914d 069e 81bf b2fe 59f6 050b 873f
00000080: f64a 5d6a a8e7 7ebf 90b3 ce7d af30 8cbf
00000090: caab d442 9438 72bf a15d 228d cf96 893f
000000a0: 16ea dd9a 65ca 86bf b035 a79b 4899 903f
000000b0: 7e1b d7ce 5cd6 7abf 8e4b 3c8e 9829 803f
000000c0: e81d 09cc 3452 953f e723 3628 a2a3 823f
000000d0: 62d2 56a0 b6ca 833f f578 742b 7780 8bbf
000000e0: 05e0 ed1a 393d 7abf 3762 4ed9 2504 90bf
000000f0: 0015 a4f1 79c4 81bf 4040 37a4 37f9 5dbf
00000100: 1ca9 2772 9484 933f 6e71 b9e8 68f4 733f
00000110: 351a b6be 85d4 40bf 072b ab53 4b46 8dbf
00000120: b989 a72d 155a 843f 7ee7 736d 37a3 7cbf
00000130: c9f3 3634 aab5 513f f222 f098 6e62 8fbf
00000140: 21e0 d5b8 4e71 803f a0c6 a870 7c1d 82bf
00000150: 3942 3fb4 3281 823f ff61 ba84 6e65 7f3f
00000160: 177f 5629 5b9b 513f 0af2 545b e9b3 873f
00000170: c31a 3cb1 a8fe 78bf 4746 023b 017e 843f
00000180: 3e2f 5bd5 b227 5ebf afd3 b0a4 7a09 80bf
00000190: 6147 50fb b729 8bbf ab10 dbc9 6c17 743f
000001a0: f615 c6c1 c80a 96bf 0ede 793f 87d6 68bf
000001b0: a1db bd97 73e0 28bf 15ad e3e8 4454 83bf
000001c0: 0b25 6d12 ebdb 523f d5f0 4aa3 eac0 5ebf
000001d0: 97d6 322e d51d 803f 7603 0979 cc4b 463f
000001e0: c809 1b15 25a1 993f ed67 ee79 3f55 79bf
000001f0: 87e7 cd1e 6367 79bf a6db 4347 f54f 643f
00000200: 4cfc f254 f1a6 40bf f1c5 55d1 135e 91bf
00000210: 6002 172d c678 96bf 71e1 9d2c 184e 553f
00000220: 6960 82bb 40f5 883f e3e2 715b 9b7e 7cbf
00000230: 1275 fc0c f49b 673f eb34 f218 aae9 703f
00000240: 0afe 66c7 03d3 74bf 9148 f91e 0a2f 7ebf
00000250: 0481 4b2d c242 70bf ee2d 8887 625d 7abf
00000260: c17d 6151 ac4a 883f 1c2f ce6d ef73 813f
00000270: 232a ef38 13aa 8a3f cf20 e0af 84b5 86bf
00000280: 3c62 34c7 53b3 953f 2130 fe90 730d 6ebf
00000290: 5335 8c39 5ba8 6bbf 1fe9 d67a 94fb 813f
000002a0: 1b61 846a fbef 7dbf c432 274d 6f0e 563f
000002b0: 53fb 124c e11e 61bf ed03 c05c 7c3b 6fbf
000002c0: bc4f 05b0 28bb 733f 7a61 aab9 6cff 70bf
000002d0: 1ce3 d61c 3cfe 7f3f c76c 9984 3ae9 7dbf
000002e0: c122 82b6 3f25 75bf b646 e38f ab05 5b3f
000002f0: 33e1 ff63 163b 73bf 3fce 7b84 9c69 8abf
00000300: 8cd2 cf40 46b0 77bf fcdb 9e19 2e84 603f
00000310: 50d4 fa29 3a47 493f bba7 3106 2283 6ebf
00000320: 8e78 eddc 5a56 813f f6de 558c 3d54 70bf
00000330: 2fc7 6092 eecb 97bf 5198 8e54 3544 75bf
00000340: d9e4 9a65 25cf 633f 88ad e36c e6d2 7ebf
00000350: d887 0a6e 36d4 803f 3a36 60be 57e8 63bf
00000360: e0c8 6ba9 c1cf 92bf da7f 430c 1176 90bf
00000370: 33f1 cd82 dc72 6bbf d886 b3ec 4bce 813f
00000380: 7e5f e265 e160 9e3f 0942 af1c 63da 693f
00000390: dfd4 d2eb ede7 83bf e5ff 723a cc80 853f
000003a0: 55f3 d34e 07f4 583f ca53 1030 baee 4cbf
000003b0: 9cbe 1526 402e 72bf 6d7c 8ec2 a2aa 903f
000003c0: 36fb b14a 4b76 84bf 153b 1377 7be6 7cbf
000003d0: 37e9 c5ac 63a6 7e3f b1b8 2c68 57d0 4abf
000003e0: 60e9 2271 3491 853f 9a89 1fd8 5b1d 92bf
000003f0: c314 dd33 b92e 513f 0025 2869 7cfd 803f
00000400: 5b3d 852f d7ae 8abf 88fd 3027 54c1 743f
00000410: 5541 2cea 8874 82bf 1226 ca8a 6ab5 883f
00000420: 1134 ad50 1c06 893f 03e8 0862 0229 92bf
00000430: 0aff 1412 9006 883f 6455 b64a 6070 853f
00000440: df13 667b 37f2 45bf b8dc 0d4e c870 943f
00000450: ccb6 995a caee 773f a564 cade db59 713f
00000460: 2ddd 5926 3143 6b3f 5c5f d3a9 27f0 7d3f
00000470: 4706 5494 555e 57bf 2ffe 78b7 8f30 83bf
00000480: dea6 2812 8e23 803f c1c6 d8dc 3e52 3fbf
00000490: ce4f caca d4ce 83bf 1ff9 23bf 1f93 8a3f
000004a0: a5b0 8a93 e3e0 70bf 6563 6ae9 81e9 6b3f
000004b0: d8b4 5348 99c4 833f 27de 3e03 382f 6dbf
000004c0: 7a36 a61f e013 80bf a239 52d2 b85c 543f
000004d0: a786 e6d2 b1a4 77bf f6eb 3bbc 17f4 643f
000004e0: d3fb ccdc 8e2d 66bf 3355 ea6a 4a8f 703f
000004f0: 2f0e b5fd deb8 62bf 0ae4 da80 0034 553f
00000500: b3c7 d50f cf23 3cbf 85a7 718c 41e6 923f
00000510: deca aab5 5ae0 72bf d3ff fbc8 abb4 72bf
00000520: 81f1 7e58 12af 6cbf 4ebb c4b2 265d 693f
00000530: 53bf 4b4e ba40 93bf 6591 f3c7 8354 7e3f
00000540: bd04 2401 3718 80bf 3108 75bc a52e 8ebf
00000550: 04b8 2730 fe7f 86bf d133 7f2b a3d9 753f
00000560: 2448 c5ef 1379 65bf bb5f 950e 85e8 86bf
00000570: 7510 bb65 00e3 7bbf 9e01 5b9a d894 7d3f
00000580: d79d 80c5 f577 7f3f cb72 a299 7d79 933f
00000590: 9e8e 402d 48e3 6a3f 09e7 b743 e16a 8f3f
000005a0: 5626 60a9 d394 67bf 3576 7c71 535d 93bf
000005b0: 6aa6 0d0c 52a9 61bf e5de d795 27b4 7b3f
000005c0: 4562 654d 7a61 603f 5884 907f 602a 52bf
000005d0: 80e1 6948 1109 943f 7700 e4d1 b974 57bf
000005e0: aeb2 d3c4 5068 5bbf 759f d11b d235 813f
000005f0: c58c f34e f33c 873f 933a d5ec 1197 673f
00000600: 48e1 d49a f5fa 85bf 84b4 ea43 e6e8 573f
00000610: 7c94 35a5 3f90 8cbf 0c80 9f6d 8088 8a3f
00000620: 1864 3890 3747 863f e3a0 e771 411d 7c3f
00000630: 769b 2295 7bf8 853f 966e b0eb fad6 83bf
00000640: 15c1 50d1 90fa 823f 4810 9950 a646 5c3f
00000650: 8546 75b4 6c1e 6c3f f76a 9992 6a84 88bf
00000660: 4df3 6ef2 8f71 6e3f 5f3c e4f1 c3a2 66bf
00000670: 7eaa 1b6b d165 84bf 53cc 245e 2e4f 67bf
00000680: 2ec3 f324 c9d9 6f3f 9be8 c4fb b337 87bf
00000690: b17c a35a 58c0 3cbf 0748 f929 ef6e 7c3f
000006a0: 97e5 774b df9f 1abf 33ad 1dc9 c15d 8c3f
000006b0: f182 8c47 6948 86bf 8498 57e2 da13 77bf
000006c0: 77c6 270c 9c78 7e3f e4d0 193a 4ace 8ebf
000006d0: 61f3 d2ea f697 92bf 765c 8ae4 8d39 823f
000006e0: d8a1 2930 e9eb 9bbf 092c 5d69 381b 86bf
000006f0: 8c17 b3b1 ebd2 8f3f 0cef b252 6a3b 723f
00000700: 836c f6b5 3567 91bf 73f8 6846 47d6 64bf
00000710: 8008 21ac 50f7 7cbf c76e 4073 d8eb 55bf
00000720: 00e9 d9f0 2867 7abf 3c89 3615 6f43 8ebf
00000730: ad19 4286 1c52 82bf 4cd7 6f3b 661a 76bf
00000740: ce6f f401 81cc 933f 7aa8 3def 1066 73bf
00000750: 1abc 1ba2 0394 733f 9639 6543 a385 683f
00000760: d3a0 2d0d 3219 773f dce6 677d 093c 823f
00000770: a821 aba5 cfb3 7e3f 97b7 d1f4 10f9 8d3f
00000780: 4385 2f69 6184 603f 6a75 2779 232c 603f
00000790: 1201 4fc9 5800 943f 89ef f2e8 683a 89bf
000007a0: 7a45 9820 8883 6ebf 637b ec09 f2be 41bf
000007b0: c04e 03f5 2699 8b3f 55f1 b47e 52fb 7dbf
000007c0: 037b 33ab fff4 92bf 4970 ef4b b908 5abf
000007d0: dcc1 5e3d 3d17 7f3f 4ca3 c991 a897 713f
000007e0: 5230 1f94 5090 77bf e4ef 345a d174 883f
000007f0: ed57 0f84 2053 90bf 964e 8cd2 f98f 8a3f
0.002546619482570673 0.016156032802744847 0.01184098178429051 0.007821035237039786 0.010322549259698397 -0.02874699005311957 -0.0014864560316301778 0.017837646591748805
-0.004755001083511602 -0.002655318541113957 -0.017824473692391762 0.0006344708322610998 -0.003858469088016055 0.009182228536589903 -0.00860218929502861 0.01125149400763745
-0.007545144913666082 -0.013764735247457499 -0.004448489327198277 0.012494679922652465 -0.01112822893968705 0.01620973062545311 -0.006552088290340373 0.007891837921794733
0.02082140441259908 0.00910116849151339 0.009663988845980135 -0.013428622258797132 -0.006406043116719222 -0.01564082278091147 -0.008675530134960585 -0.0018294375776015809
0.019060439555610306 0.004871759224979717 -0.0005136158992378794 -0.01429423188291913 0.009937444167864894 -0.006991592897287789 0.0010809099338608844 -0.015324462930963876
0.008028616920214006 -0.008845302761162188 0.00903548824854382 0.007665092194337308 0.0010746374367513517 0.011573622798658274 -0.006102236704242872 0.010005960095699552
-0.0018405195636885387 -0.007830579901659222 -0.01326316581438264 0.004905152278016948 -0.02152551348401307 -0.0030319825707996245 -0.00018979464573095926 -0.009438074452609283
0.0011510654091629348 -0.0018770495782254777 0.007869401428574547 0.0006804226305306821 0.025028781331238453 -0.006184814409516887 -0.006202113331591159 0.0024795332520812395
-0.0005081823709572968 -0.016960439349935134 -0.021945091726367827 0.0013003574444763989 0.012186532709435665 -0.00695667921456142 0.0028819815269246563 0.004129089778087218
-0.005084051858318181 -0.0073690791465016595 -0.003969915870328803 -0.00643671501212449 0.011861177667184532 0.008521910227294031 0.013019704985613839 -0.011088406197828608
0.021191891702161167 -0.003668523517211156 -0.0033761769995012485 0.008780632017864108 -0.007308942884513915 0.0013462149550946137 -0.0020899200759169428 -0.0038125447226779936
0.004817160545218909 -0.00414984198382517 0.007810816588453642 -0.007302502237133974 -0.005162476423841767 0.0016493010912665257 -0.004695022071239219 -0.012896750252799126
-0.0057833427681443055 0.0020161533729736707 0.0007714303973985846 -0.0037246384177267145 0.008465490214515616 -0.003986587927435661 -0.023238876041609288 -0.005192001649367909
0.002418110886392638 -0.007525348757762791 0.00821726344412703 -0.0024301255934975593 -0.018370653119696878 -0.016075388310923568 -0.003350668607195706 0.008694260750817959
0.029666444629213633 0.003155892923565999 -0.009719713935150085 0.010499568494537878 0.0015230246893331485 -0.000882950698840029 -0.004438639241342603 0.016275923847953445
-0.009991253106134228 -0.007055742536251204 0.007482900004442342 -0.0008182932655012213 0.010530862524650686 -0.01769011980639732 0.0010487373942436463 0.008295986136561684
-0.013028794419965342 0.00506718513776095 -0.009011335035694993 0.012064773903392587 0.01221868630605097 -0.01773456309658884 0.011731267501658777 0.010468246727024684
-0.0006697436245280927 0.019961480869338216 0.0058429626893549795 0.004236086719765418 0.0033279380757523986 0.007309107718547949 -0.001426299642219313 -0.009369967257156634
0.007880315713083726 -0.0004779246781679674 -0.009671842993419857 0.01297592927994323 -0.004120720834787904 0.0034072434749074392 0.00965232612585469 -0.0035625547406785865
-0.0078504094751921 0.0012428097627751118 -0.005772299408279536 0.002557798727023104 -0.0027072706492669934 0.004042902654551472 -0.0022854190152956848 0.0012941365161351936
-0.00042938046666229495 0.01845648212148589 -0.004608492216606945 -0.00456683257630171 -0.003501449424190451 0.0030961757494404668 -0.018801604298402563 0.007404818315283589
-0.007858686182318992 -0.014737410367732991 -0.010986314625338174 0.00533450830694178 -0.0026212109934613693 -0.011185683734467369 -0.00680828242520103 0.007222028832700648
0.007682762188813772 0.019018137456998468 0.0032822045996157697 0.015340576056576365 -0.0028785833374101273 -0.018910697747847222 -0.0021559336168380143 0.006763605718780962
0.0019996060101841484 -0.0011087362638664468 0.019565839810157026 -0.0014316382071797565 -0.001672819972834787 0.008403436159099201 0.011346722456840994 0.002879652986542533
-0.010732573306640916 0.0014593361553736648 -0.013947007397925974 0.012955668778829497 0.010878023232225018 0.006863837856578156 0.01072784947275605 -0.009687385862029257
0.00926697863369034 0.0017258285682979647 0.0034324763434277505 -0.011971314047675359 0.0037162600960684356 -0.0027631594704256436 -0.009959827500513937 -0.0028453736896607933
0.0038880280113676923 -0.0113367139061789 -0.00043871075707886247 0.006941732629984549 -0.00010156441100397092 0.013850702238150525 -0.010880300994871446 -0.005634169594008868
0.007439240990139254 -0.015041904352280651 -0.01815782364132035 0.008898838555337667 -0.027267116131413832 -0.010794106212093995 0.015539018021069294 0.004451194118867862
-0.016995276671519576 -0.0025435821619615383 -0.00707179558418336 -0.001337968232298191 -0.006446037221048195 -0.01477705749022517 -0.008945677611575354 -0.005396270126757429
0.019334808105767647 -0.00473600974133081 0.004779829208685827 0.0029934109435664864 0.005639262689193641 0.008903574122985196 0.007495699998522211 0.014635212394036574
0.0020162489467884528 0.001974171909053514 0.019532573019888373 -0.01231843911079246 -0.0037248285996233617 -0.0005415613012223871 0.01347570834369749 -0.007319757696049163
-0.01851272089413226 -0.0015889939820601543 0.007590522020038706 0.00429502341703698 -0.005752863655242706 0.011941562238113997 -0.015942104397105018 0.012969924676816274
