Lab4/trained_rbm/rbm.hid--pen.bias_v.npy (npy, 4128 bytes, 1 tensors)

array f8 [500]
0	0xbfc46f3b810f1260	-0.15964454461767996
1	0xbfc19ff9b1b099e9	-0.13769456077825673
2	0x3fa02cddb5c7398c	0.03159230083439288
3	0xbfbc8b659d035a14	-0.11150202830626937
4	0xbfb964551ef760e2	-0.0991872025109646
5	0x3fe3157563e03a68	0.596369452543354
6	0xbfb6f9ea789035c3	-0.08975091403427542
7	0x3fe734ac4f2b0d0a	0.7251798197034145
8	0xbfd53918767cb864	-0.33160983630194196
9	0xbfc8533161a54901	-0.19003884570935983
10	0x3fcb9970a7646445	0.21562011884160107
11	0xbfa4e01dc311f451	-0.0407723713515017
12	0xbfbf37ac12262276	-0.12194323962297368
13	0xbfc8e8a6b1f26d7e	-0.1945999497300867
14	0x3fb58ad8fd7d3f9c	0.08414989651396215
15	0xbfd379a7a9d19f46	-0.30430022796507605
16	0x3f908ed90b2d461d	0.016169921214276173
17	0x3fe499c3aa5b5f01	0.6437700583728373
18	0xbfc1363f80b2cb8a	-0.13446801933386282
19	0xbfca2fad5f612914	-0.20457999379352343
20	0xbfb79619ef71bfeb	-0.09213411422547295
21	0xbfa490360715858c	-0.04016274296260311
22	0x3fbabbf53c08e10c	0.10443051067057157
23	0xbfc969a6cdbfbbe1	-0.19853673025451626
24	0x3fb4d19d9758feb6	0.08132348008165988
25	0x3fd5827bad7dd5e3	0.33608905737432176
26	0xbfc6a8dff161d5c6	-0.177028649198901
27	0xbfc9475910c09f4f	-0.19748986547460354
28	0x3fa8a3c430898f18	0.04812443821427176
29	0xbfc608280b96e6b7	-0.17212391439334393
30	0x3fcfcf6619978584	0.24851680993655745
31	0x3fcf972ac0a567b6	0.24680075079487346
32	0xbf89d4d7f8e5c5be	-0.012612998278856643
33	0x3fe31d8522a6d077	0.59735352294821
34	0x3fb84f49e5390e12	0.09495984884511469
35	0xbfc75014934f34bc	-0.1821313590320751
36	0x3fd3ba2ff27fe6d1	0.30823897058108424
37	0xbf80728b589188cc	-0.008030975952526019
38	0x3fb5e21fd1bcf5ec	0.08548163290557625
39	0xbfa4d3ac3ac54ed7	-0.040677435087358375
40	0xbf85a01c334f92e5	-0.010559292140848562
41	0xbfb69db30cacaa09	-0.0883438020652322
42	0x3fd4a892083a5a70	0.3227887230254174
43	0xbfc63a01f969b1d2	-0.17364525488245747
44	0xbfc9dc789c202674	-0.2020407450038878
45	0x3f91e18e8de2cd92	0.017461993608504374
46	0x3fa2d3bb116757b6	0.0367716273064355
47	0xbfbae4c6b528d296	-0.10505334780538997
48	0xbfb143a12a7287d4	-0.06743819509804833
49	0xbfcdae175b90ee4b	-0.23187534304621446
50	0xbfc65248fe76cf99	-0.17438614296918045
51	0xbfa2b3faac9b07f1	-0.036529382295625974
52	0x3fd75fa32db22827	0.36521224462979024
53	0x3fe22c0886032282	0.5678751580645243
54	0x3fd14a6325565caa	0.27016523977494933
55	0xbfbae3a8bb79a30b	-0.10503630234746823
56	0x3fa02b69dafce1d2	0.031581218702232086
57	0x3fd8fdd6d4e72717	0.39049311438849216
58	0xbfbee51630bf4751	-0.12068308534733531
59	0xbf8b1208958f34d3	-0.013217989982786815
60	0xbfc1966bc1999526	-0.13740298226472553
61	0xbfc7a21fc367f5f1	-0.18463513413728053
62	0xbfad34c7e4f759cd	-0.05704331083295564
63	0xbfcfba15776b7d64	-0.24786632853554658
64	0xbfd61c219f6c99c2	-0.34546700066348646
65	0x3fa27a5956824b90	0.036089698610474064
66	0x3fe341b5f7cf6ff5	0.6017713394207919
67	0x3fd5c9d6a7518a6b	0.340444243809691
68	0xbfbc33866e7c3ba0	-0.11016121098894738
69	0xbfb0d6a08db4143c	-0.06577495059544075
70	0x3fe72b8f9ec45deb	0.7240675068778136
71	0xbfbf0eb7d71d468a	-0.12131833078208323
72	0xbfc474df4c64ff92	-0.15981665830804254
73	0x3fe3811faad31334	0.6095121704498525
74	0x3fc38c5230b6bdf7	0.1527197587833908
75	0x3fc1fb3e6874e6b3	0.14047985172674302
76	0xbfc496f94413efc0	-0.16085735153308
77	0x3fe4fbc3e57a74ba	0.6557330591200732
78	0xbfb62fe999e83140	-0.08666858680243639
79	0xbfc331bad2cdaec1	-0.1499551324189863
80	0x3fb9d1622e051a35	0.10085118888410068
81	0x3fd35ff038b29f8f	0.30273061310662625
82	0xbfca7ec4e589403f	-0.2069936867505948
83	0xbfa49d64806bc4d2	-0.0402633101238138
84	0x3fc5600666241209	0.16699295031880038
85	0x3fd8dd24fa75149d	0.38849758585667776
86	0x3faa2084830b5be6	0.0510293397871278
87	0x3fb7a7f3f9a2cbd8	0.09240650982501053
88	0xbf83adcca9acb6d4	-0.00960883992010101
89	0x3fe774edec0f469f	0.7330236063518959
90	0xbfc55b2f14a2ac72	-0.16684521205511121
91	0x3fb7371f6a97b982	0.09068485596046652
92	0xbfcfe7f02161a547	-0.249265686320806
93	0x3fb440f07f73ae8c	0.07911589728944984
94	0xbfc1d11f8176d32e	-0.1391944296025484
95	0x3fc53b7a22f03f2b	0.16587759691219026
96	0xbf939e4cf10a9bc7	-0.019158556186677857
97	0xbfd1784af239199a	-0.2729670873126452
98	0xbf9e7cc5bf335117	-0.029772844119024002
99	0xbfc69ec7cf19d669	-0.1767205964312553
100	0xbfc07c91a91b27f5	-0.12880154378063904
101	0xbfa68e8161ffe79a	-0.04405597993168371
102	0xbfc86f882dee7351	-0.19090368502375069
103	0x3fc1435ec2d7db9c	0.13486847413852565
104	0xbfbfbbc6723b1f37	-0.12395897187081749
105	0xbf85c1a71a9f22d7	-0.01062326955788377
106	0x3fa34169b7ce5f5c	0.0376084362862332
107	0x3fe69cf9572c28bc	0.7066618635738204
108	0xbfbb05bcdbcd662c	-0.10555630079525063
109	0xbfd4b65d351ea2ea	-0.3236306208369074
110	0x3f762f933fc97af2	0.005416464988768454
111	0xbfb4e280a80af30f	-0.08158115484816285
112	0xbfc4ac4aa278cd5b	-0.16150792058179317
113	0xbfd0f3e1a5de1358	-0.26488534162517885
114	0xbfbc5090c760382e	-0.11060433261465683
115	0xbfaa89f6675ab00c	-0.051833820454106755
116	0xbfa7268a2a3a1e8a	-0.04521590962855011
117	0xbfcaf700d8f4cd2b	-0.21066294282500428
118	0xbfb5d251b22a13f4	-0.08524046516147604
119	0xbfc902ff38f0c42b	-0.19540396004006885
120	0x3fc432d02b39ab51	0.1578006945668116
121	0xbfa2e831fdd409c3	-0.0369277593945472
122	0xbfb231563c8e0513	-0.07106532076251808
123	0xbfb42b2178fffe71	-0.07878312305546743
124	0x3fcd85d69e611856	0.23064692242968715
125	0x3fe8a8d11870c288	0.7706075169899842
126	0x3fe14125d0a59318	0.5392026019222582
127	0xbfc5ca8df84ea8ff	-0.17024397491815788
128	0xbfc9bb907b1576d4	-0.20103651056245175
129	0x3fd9ac38d62fab52	0.40113659779188027
130	0x3fc4ec4ca1c7da31	0.16346128367850235
131	0xbfc733e298f7c99b	-0.18127090901505202
132	0x3fadea72773b3242	0.058429314665407364
133	0x3fd022efc7edeb68	0.2521323635516439
134	0x3f94441ca2723085	0.01979107610218069
135	0x3fbfb6ccb1c212ad	0.12388305034444143
136	0x3fc1c16fca681f06	0.1387157190622405
137	0xbfc32807ca44b73f	-0.1496591317786002
138	0x3fa794f60c15501a	0.04605835816860822
139	0xbfd014f17d6d893c	-0.2512782788163752
140	0x3fe6d74eb02f565e	0.7137826386558108
141	0xbfac26904dc63a42	-0.05498171758073457
142	0xbfa176bcda9bcf05	-0.034109021840690125
143	0xbfa83ad4a796bb59	-0.047323842485062335
144	0x3fd16461568c0ade	0.27175172283038573
145	0xbfb9ca057d216665	-0.10073885254805644
146	0x3fcd0d686bb23074	0.22697167643162042
147	0xbf9f7d4d5b520e39	-0.030751427363169468
148	0xbfb9d583ce13e3f6	-0.10091422825998095
149	0x3fd03cb45cf51aa8	0.25370511129259876
150	0xbfc027a7f162d09c	-0.12621020590234344
151	0x3fc8a68af36da084	0.1925824822058112
152	0xbfd48c6e0d66820a	-0.32107116039881645
153	0x3fbe7e2fb7774e56	0.1191129515566954
154	0xbfc7d4cad029788b	-0.1861814037719721
155	0x3fd0cedb3c2d94e1	0.26262551190150246
156	0xbfc5bddc4d5cc1e1	-0.1698565843339699
157	0xbfc80ab21e736c3e	-0.18782640921458155
158	0x3fc80b8474a95ee6	0.18785148331038853
159	0xbfce3c49adff361b	-0.23621483798926665
160	0x3f8692734742504a	0.01102151929107022
161	0x3fe76a28b3ed3ea6	0.7317088617509924
162	0xbfc097247a8c93cd	-0.12961250289768458
163	0x3fd08611c1cd6373	0.25818294454580054
164	0xbf9358386b7db1e7	-0.01889122158120129
165	0xbfac83d711131edc	-0.05569336017066259
166	0xbfb9ee8e723eb575	-0.10129633225615982
167	0xbfa751ee6e67c80d	-0.04554696176263926
168	0xbfcc7200b1b12d3d	-0.22222908665058042
169	0x3fb1eaa8f72edfa6	0.06998687777274756
170	0x3fb0ef3af97b964e	0.06615036574256658
171	0xbfcbf74e9e6e50f0	-0.21848471389660729
172	0x3fe3c0696936bcb4	0.617237763877617
173	0xbfc4ba79d26075bd	-0.16194079181961554
174	0xbf80cb0bc38eefd5	-0.00819977942034448
175	0xbfccd2578928ae22	-0.22516912648403414
176	0x3fa849b19834c90a	0.04743723853097677
177	0xbf9b4d606c7486f7	-0.026662356013850332
178	0x3fa8850529f26fee	0.04788986336754407
179	0xbfb324b5368fe789	-0.07477886755068942
180	0x3fd47cbba3e20395	0.32011309627710577
181	0xbf7f1761d0a48501	-0.0075906582735865155
182	0xbfc124d7508cfdae	-0.13393680031911742
183	0x3fa03aa22bf02f92	0.03169733797412201
184	0xbfa480e354d0a07e	-0.04004583750094158
185	0x3fbc95d570671483	0.11166128153043257
186	0xbfc0f9b457768169	-0.1326203753533364
187	0x3fec7bba82390154	0.8901035827075625
188	0xbfbb5a6ec1947c25	-0.10684864259791078
189	0x3fd26a94e07d9e84	0.28775522158546374
190	0xbfc58c78606ef3e5	-0.16834931095755148
191	0x3fb39d7a2542a631	0.076621660324826
192	0x3fa39f7d03623f40	0.03832617441469077
193	0x3fa4dcbf2d61e2b5	0.04074666432365374
194	0xbfb815ca3321f1db	-0.09408248661379252
195	0xbfce42d2d2b59d4a	-0.2364142922262807
196	0x3fe579b35f01d709	0.6711060386284952
197	0x3fc16bb359e5517a	0.13609926118318666
198	0xbfb35b6291ccefb7	-0.07561317500670738
199	0x3fc391b2bd095c13	0.15288385610867347
200	0x3fc3863700a989c2	0.15253341228806333
201	0x3fd5f935a56c375a	0.3433355441528555
202	0xbfb9874d0533ec97	-0.09972077729246319
203	0xbfc0dc2e993bd23e	-0.13171942216981053
204	0xbfb829cd7324c006	-0.09438785611268949
205	0xbfc2e81b89d2ed81	-0.14770836095508957
206	0x3fdcd4a0d229ab05	0.4504777958269844
207	0xbfbbbaec028aa21f	-0.10832095205353952
208	0x3fdc3731e53b4872	0.4408688295926658
209	0xbfc47b9a59f92880	-0.16002206223703652
210	0x3fc207875e9d0e14	0.14085476035880673
211	0xbfd43fec06270520	-0.3164014873583074
212	0xbf92e1292715ba95	-0.018437045107413914
213	0xbfcb620b3ce32cbb	-0.21392956231134072
214	0xbfcc00b6bb12561d	-0.21877178320271265
215	0xbfc0f790bf27c5f3	-0.1325550969482233
216	0x3fd5a5327eae9083	0.3382078396919114
217	0x3fc8c17caaac62fa	0.1934047540060176
218	0x3fd37515ef389ff0	0.3040213428635061
219	0xbfa762081fb11f47	-0.04566979777206242
220	0xbfcba3c1ed750abc	-0.21593498320188143
221	0x3f75bb63e0853ade	0.0053056622931097735
222	0xbfc9458c83a56ab9	-0.1974349634936823
223	0xbf2175da0d05c888	-0.00013321196321275743
224	0x3fd5658a2d8bed58	0.3343224949637338
225	0x3fbac874c5c223be	0.1046212179954997
226	0x3fd358a2a47a2494	0.3022848707410699
227	0xbfbacb787a9ae552	-0.10466721528327597
228	0xbfb27b23638ad93c	-0.0721914403937704
229	0xbfa5161c763b6faf	-0.041184319908750815
230	0xbfc7e21d24e0e48f	-0.18658794689853095
231	0xbf90df11863d607a	-0.016475938623756715
232	0xbfc59268dbdd701a	-0.1685305665549784
233	0xbfb3598c7f63a0ed	-0.0755851565369345
234	0x3fce1918272098f7	0.23514081869615897
235	0xbfc7142f14228ab8	-0.18030346377516593
236	0xbfbbcb027f51a055	-0.10856643303270748
237	0x3fd0d34bac7fe779	0.2628964600149782
238	0xbfca511c24036840	-0.20560027845823647
239	0x3fd60c99855d4727	0.3445190241228481
240	0x3fe86a299a5e1635	0.7629592909804105
241	0xbf99a507dd4a9fe3	-0.025043604737817204
242	0xbfaeb8bfa12c1e14	-0.06000326960025518
243	0x3f6278d818136835	0.0022548885905111734
244	0x3fb122ed02d5afe6	0.06693917578894534
245	0x3f9d3d8bd6a05146	0.02855509278750048
246	0xbfcb6e986a69890b	-0.2143126029578258
247	0xbfab562d655d5389	-0.05339185583458234
248	0xbfcdd6c2fb595a89	-0.2331165053644393
249	0x3fe19faa3eeae3e1	0.5507403591974446
250	0xbfa8d03a0da2869a	-0.04846364418450584
251	0xbfa70039614522db	-0.0449235850561018
252	0x3fbcaa3841aade07	0.11197234729012716
253	0x3f71af879736d2c3	0.004317788745016929
254	0x3fecb37cf4d49ed3	0.8969101697775507
255	0xbfb3855aebbffcfa	-0.07625358825315579
