Lab4/trained_rbm/rbm.pen+lbl--top.bias_v.npy (npy, 4208 bytes, 1 tensors)

array f8 [510]
000000 c9 f7 22 20 2f 1b bc bf ea 1a a3 c0 b3 91 a8 bf
       -0.10978979620537567 -0.047986619248652065
000010 4b 34 63 84 c5 7b b9 bf 51 3c 0f c7 d9 5c c1 bf
       -0.09954485399357897 -0.1356460782976421
000020 a3 c5 bd ba 35 02 a9 bf 89 69 3a a0 4f c5 c3 bf
       -0.04884498505169723 -0.15445895503655674
000030 69 0d 6b 36 36 da c1 bf f6 c8 e0 31 4c a4 a1 bf
       -0.1394717946733224 -0.03445661648619762
000040 27 d3 44 4b 12 aa c0 bf 41 f1 38 74 32 61 b0 3f
       -0.13019016909825007 0.06398310983144474
000050 63 07 c5 06 17 74 99 bf ad 36 9a 4f 98 5e 9f bf
       -0.0248569105035651 -0.030634288652939535
000060 00 11 51 db b8 84 c0 bf 07 1a e3 20 dc 99 bb bf
       -0.1290503569490582 -0.10781646540554145
000070 67 17 f4 2e 22 38 b2 bf 9f 45 29 d2 7d 61 b6 3f
       -0.07116902967763182 0.08742510205163122
000080 5a 69 b5 1f 53 9d bd bf a3 dd 47 e6 9e fb 7e 3f
       -0.11568183445107164 0.007564182950310724
000090 29 d5 4b e7 a2 60 c0 3f af 28 80 99 06 34 a8 bf
       0.1279491071106034 -0.047271925199383495
0000a0 a9 5c 18 fd cf 6b c8 bf 28 8f 0c 36 d4 1e 95 3f
       -0.19079017503893184 0.020625415610211167
0000b0 c0 c7 aa 7b 6b 71 79 bf 56 80 8e 67 f7 29 b9 3f
       -0.006211681228409149 0.0982966068099825
0000c0 7a 40 80 7f 38 4f a8 bf 21 e9 17 d5 0b ac 92 bf
       -0.04747940594109053 -0.01823442924612906
0000d0 80 ab 38 57 8e 07 c0 bf b2 0e 68 31 d8 78 c1 bf
       -0.1252305913816052 -0.13650038158822536
0000e0 c5 6c 85 60 8a f1 b3 bf 15 84 08 a2 5f b3 b3 3f
       -0.07790436607813252 0.07695577340975064
0000f0 07 30 1c c7 a1 7f c3 bf 1d 99 39 24 8d b1 c0 3f
       -0.1523325178353618 0.13041843670652833
000100 59 95 7d 6c 69 cd cd 3f 8e d7 bc ff 72 82 b7 bf
       0.23283117101088172 -0.09183424705119433
000110 e2 13 cd dd 32 28 cc bf a4 b8 79 88 9f 10 b6 bf
       -0.21997676687365614 -0.08619114953919166
000120 00 dd c1 e6 fe 8d bd bf 5e ed f7 f5 c5 70 b7 3f
       -0.11544793256495112 0.09156453375901694
000130 e8 78 16 5d 25 15 8d 3f 5f e7 0b 54 03 3e b0 3f
       0.014200488951982185 0.06344624330440983
000140 fb 37 88 7c 6e c7 ba 3f 29 c0 da 6e 2f 27 a6 bf
       0.10460558452925277 -0.04326771000103264
000150 3c ef 03 b1 00 ea b9 bf 0d e6 98 e9 15 f0 b1 3f
       -0.10122684785522734 0.07006966546114075
000160 8f f8 2a 42 1f 75 97 3f 73 ba c1 a7 44 f5 b2 3f
       0.022907722867551213 0.0740549954950696
000170 71 f9 be 04 ec 4c ba bf 24 ff c5 ea 77 27 c7 bf
       -0.10273623576992975 -0.18089198077722657
000180 2e f5 b3 7b f9 40 c4 3f 93 cc f5 23 57 59 b4 bf
       0.1582328657167777 -0.07948822620328348
000190 48 1e 87 94 ef 38 bb bf 56 10 e8 ae d9 7e ae 3f
       -0.10633752227942594 0.05956154117669203
0001a0 c5 19 9d 96 20 59 c3 bf 0f d1 d9 72 1a 4a b2 3f
       -0.15115744928534816 0.07144322685218561
0001b0 b9 2d e7 5e 5a e0 bf 3f 72 f9 fb 6a eb 0f ba bf
       0.124517105264366 -0.10180541383667732
0001c0 38 80 6a c7 fb 0c c3 3f 03 e9 e2 b0 3c be a4 3f
       0.14883372532949735 0.040513893692564217
0001d0 31 4b 15 fe 34 53 af 3f 9c ed 10 e8 b0 77 c2 bf
       0.061181694046032915 -0.14427768069604674
0001e0 52 c2 22 8e 8d c0 a5 bf 8d 6b 2b 77 3d b3 ac bf
       -0.04248468742423896 -0.05605499343592788
0001f0 16 89 59 9e c2 e9 b5 3f 6f df 51 48 4f 77 c4 bf
       0.08559814802132268 -0.15989104300728793
000200 4e 18 fa 4d 19 bd 89 bf 22 d6 88 17 8e aa 67 bf
       -0.012567708675543934 -0.002888944171241873
000210 e1 45 dc c6 65 74 c6 bf 5c 6b c6 48 ec fa bd bf
       -0.1754271718023537 -0.1171100309060597
000220 18 c4 b8 a5 70 c7 b7 3f 4f 23 88 a5 aa 94 b8 3f
       0.09288696332875224 0.09601847211173474
000230 bb 87 5a 57 b6 3c b9 bf 65 63 b9 70 c3 cc bc 3f
       -0.09858264572770185 0.11249944212012293
000240 8a 1e 6e ff 4c 5d c9 bf 43 c9 c2 d9 4d e3 b2 bf
       -0.19815981361556495 -0.07378088537624188
000250 d0 be b1 5d 72 4d af bf fa 5f 79 d2 85 f1 cd bf
       -0.06113774675111261 -0.23393318917328526
000260 a4 84 dd b3 3b 3e c6 bf 8f bc 5c a8 96 12 ae 3f
       -0.17377420694814305 0.058735569049866425
000270 f0 63 89 d6 77 08 c0 3f 97 82 45 1a 05 2e c1 3f
       0.12525842643188367 0.1342169168738294
000280 ca 84 cc db b3 ad c0 bf 39 d6 1b 00 44 f1 91 bf
       -0.13030098183029387 -0.017521917826306164
000290 54 3b 74 77 95 ac c8 bf 8d dc b7 fb 78 e4 ba bf
       -0.19276684124676058 -0.10504871507133569
0002a0 ab 0c ea b8 5a 30 be bf 99 83 34 bb cf fc a1 bf
       -0.11792532934673498 -0.03513192329615506
0002b0 7b 60 ea c2 8d 49 c2 3f 2a af 0a f0 d7 70 c0 3f
       0.14286968247757045 0.12844371052539688
0002c0 46 bd 8c 75 cb 99 c3 bf 60 03 ac dd 4e 2a b0 3f
       -0.1531309436772778 0.06314556991493481
0002d0 fb 8b 76 16 1e 24 a1 bf 7a ec 0a 06 60 39 87 bf
       -0.033478679887842554 -0.011339903053672485
0002e0 b0 4b 1a 19 01 4e ad bf 55 13 59 0d b9 5a cc 3f
       -0.05723575049810081 0.22151864196544105
0002f0 7c df b5 27 19 93 b5 3f 3e 96 81 89 c2 ae 8b 3f
       0.0842757913541145 0.013516921826702274
000300 47 d1 9e 04 63 28 a2 3f 49 6e 8a d0 6c fa b8 bf
       0.0354643767490495 -0.0975711831219367
000310 0a 55 a1 ed 53 36 c4 bf 6a 7a 5c e6 22 68 b2 bf
       -0.15790795424496934 -0.07190149425557882
000320 a7 2f 6e fe 6e 27 63 3f 5d e0 bb 6d f8 17 b5 3f
       0.00233813932886125 0.08239700964975456
000330 29 4b 71 39 3e 4a 93 bf b5 6b 87 1b 8b c7 b2 bf
       -0.01883790231324692 -0.0733572904786531
000340 aa 27 0c 78 d8 db c3 3f c2 67 a4 70 23 3f 97 3f
       0.15514665471738215 0.02270179152501562
000350 4a 8f dd 27 bd 02 af bf 1d 79 26 fc 78 39 c0 3f
       -0.06056777106894502 0.12675392448449765
000360 18 63 ce d1 f4 2f c7 3f bd d4 25 75 f2 7f ad bf
       0.18115101093715036 -0.05761678390528278
000370 ce bd 78 43 d7 14 96 3f 01 87 c8 f8 b6 a7 f8 3f
       0.02156387662233588 1.540945979890637
000380 fc 5d 64 42 cd 6c a0 bf 7b d6 08 ed b6 42 b3 3f
       -0.0320800918145174 0.07523673331237461
000390 00 83 a2 2a 0a 5f b3 bf b0 d6 6f 73 43 f8 9f bf
       -0.07566894093407583 -0.03122048751898515
0003a0 3d 1d 7c 10 2a 20 c0 3f 60 0a a1 a0 ca de ba 3f
       0.12598157696650417 0.10496202870948812
0003b0 c6 bb 94 c6 4b 5c ac 3f c9 4d 24 f7 49 55 a4 3f
       0.05539166258892396 0.03971320287578412
0003c0 46 bb 8a 36 0e be c0 bf e9 a3 a8 cc 77 86 bd bf
       -0.13080003417186442 -0.11533306833793201
0003d0 46 af 5b 81 a6 8f a3 bf 3b 24 f1 ba ce d0 93 3f
       -0.03820534066275498 0.019351225051910097
0003e0 7f 43 e7 92 ba 2c 8d bf 2c df 29 43 e8 cd b7 bf
       -0.014245469673285658 -0.09298564567313566
0003f0 0c ff 54 ce ef 99 95 bf e6 f5 3f 87 ef 9e ca 3f
       -0.02109503456927002 0.20797533134456997
000400 0b 84 d7 14 34 06 c4 bf 5c 7a d7 14 08 37 c8 bf
       -0.15643931405705333 -0.1891794301763693
000410 a8 01 9b 69 3b e1 aa bf aa 65 60 3e 69 42 a5 bf
       -0.0524996344006497 -0.0415223015444995
000420 0d b1 b0 67 80 7b c7 bf cb d7 ae 68 c5 79 cc bf
       -0.18345646918295025 -0.22246615992997784
000430 c4 12 6b 01 d3 f6 be bf fc 34 18 3f 11 63 b8 bf
       -0.12095373901963585 -0.09526164808649534
000440 2e bb fb c8 1d af 80 bf 34 07 11 b0 48 0a c9 bf
       -0.00814650792696411 -0.19562634083745822
000450 4d 64 ca e5 c4 ae 90 bf 69 e5 2c 24 36 a3 bc bf
       -0.01629169132738566 -0.11186540969074134
000460 f6 99 c4 ee 61 a5 a9 bf ea 5d c2 a3 29 3d 8b 3f
       -0.05008989371917842 0.013300252256427354
000470 9e 05 11 ca d2 10 b7 3f 49 85 d3 5d 04 38 a8 bf
       0.09010045464767422 -0.047302376225852934
000480 8e 0b 77 bc c3 37 d1 bf d0 1d 22 6b 9f 96 ab 3f
       -0.2690286007384025 0.05388353522090095
000490 0b 10 04 11 b6 17 8b bf 60 ee 72 39 b5 26 a5 bf
       -0.013228819269450317 -0.041310942900477654
0004a0 e4 2f d1 b3 45 8a a4 bf a0 8c ce 28 4c 10 1d bf
       -0.040117433739027125 -0.00011086907234285565
0004b0 9f a6 93 e2 5a 0e ba 3f 03 7a 3c 14 2e 0b b9 bf
       0.10178154021891793 -0.0978268432049632
0004c0 e7 c3 67 8d 71 9f c0 3f b6 6f 0b e8 3d a1 c9 bf
       0.12986583141858363 -0.2002332098990089
0004d0 11 31 90 09 b9 92 bb 3f dc b4 95 40 9f d4 c1 bf
       0.1077075622890258 -0.13930121091417547
0004e0 16 b1 ff 81 b4 a6 a6 3f 9b d6 d2 ff b0 e0 b4 bf
       0.04424060904406894 -0.08155351873105092
0004f0 09 be d2 f2 bc dd 97 3f 1c 02 ad 52 79 f5 3f bf
       0.023306801148178766 -0.0004876538466085671
000500 08 be f4 74 87 b1 c7 3f d5 11 77 ae ac 01 8d 3f
       0.18510525904410735 0.014163350176098636
000510 14 01 5e 10 13 08 81 bf 3e 93 d4 ff d3 cf c5 bf
       -0.00831618207644217 -0.17040491096227045
000520 ae 7c 59 64 ac e8 99 bf 58 f2 1b ce ad e1 c3 bf
       -0.025301641106463428 -0.15532467426227714
000530 e3 97 c7 d5 31 76 c7 bf 0c 23 a1 ce e2 6c ac 3f
       -0.1832945150228503 0.055518233989067495
000540 14 42 a8 21 86 cc b5 bf 49 41 a0 4a 44 52 c2 3f
       -0.08515203782759101 0.1431355823883769
000550 fb 33 c1 db 87 2f a6 bf 04 75 99 1e 0f a9 ac 3f
       -0.043331380439305144 0.055977318272860926
000560 c1 f7 70 3f d4 d8 bf bf 2f a9 d8 dd c6 5d e1 3f
       -0.12440229939326654 0.5426973660408175
000570 4f 28 62 2c 33 07 bb bf d7 17 b5 f0 b5 50 a4 bf
       -0.10557861169414305 -0.03967827380488103
000580 ba 2b 78 4c 50 c0 b3 bf 2a a7 f9 cf c5 1c a8 3f
       -0.07715322367600566 0.04709451831588603
000590 8a 3a 4e c0 6d 0a c1 3f 83 6c 89 dd 6b e7 bd 3f
       0.13313075914307532 0.116812459550987
0005a0 a2 c9 d2 d7 f5 7e a2 bf d0 52 14 a3 22 c0 a4 3f
       -0.036124880405071794 0.04052837601390069
0005b0 0d 13 3c 46 5d 82 b5 bf 75 20 b2 8e a5 ca bc 3f
       -0.08402045216287153 0.1124671433809697
0005c0 db b8 23 bb 07 70 b0 bf a3 1a a5 ca 50 f8 a0 3f
       -0.06420944517933284 0.033144497620516654
0005d0 1e 5d 04 91 19 86 a0 3f c7 9e b0 df 33 0b c1 bf
       0.032273100807453256 -0.13315437719687948
0005e0 a7 0c e8 b6 79 18 b9 bf 73 ae 32 e5 7a 89 b7 bf
       -0.09802971568574269 -0.091941529232537
0005f0 84 7a 0b 9c a9 f3 c7 bf af e2 9e c6 4d 7e b5 bf
       -0.1871234905183493 -0.08395849322449565
000600 b8 db fd 1c 06 49 b1 3f fe 2f 45 29 ea cd a3 3f
       0.06752050597957193 0.038680379426835984
000610 ae 2c 91 d5 ec bc b1 bf a5 8d 17 70 18 b4 ba bf
       -0.06928901876487956 -0.1043105386411783
000620 d3 89 ce 5f 47 a0 c5 bf a6 e0 72 7c c5 7e bd 3f
       -0.16895382097307152 0.11521562851237607
000630 ad 17 e5 e2 66 65 ae bf 5b ec b0 47 91 5c bc 3f
       -0.05936738509858173 0.1107874679591289
000640 43 1d b5 7b 40 90 b0 bf 4b 34 28 43 da 67 b7 3f
       -0.0647011091251573 0.09142841472221723
000650 3c 0a 39 1e b2 6d c2 3f 79 69 af 2c eb 3c c2 3f
       0.14397264934275877 0.14248408967871365
000660 69 af 5b 00 06 67 cf bf 4a 76 32 c3 6d e2 94 3f
       -0.2453315259693867 0.020395007170569003
000670 61 3e 97 aa 96 9e b9 bf a6 0a 60 59 de f0 99 bf
       -0.10007611908735604 -0.025332903103854186
000680 2f 18 a6 2c 14 72 c0 3f 46 1e 38 1d 1a 41 9a bf
       0.12848140888326173 -0.025638969453238646
000690 e1 26 a5 12 78 1f b0 bf 8b be 07 4b 08 92 99 3f
       -0.06298017935946688 0.02497113187740622
0006a0 45 36 ad a7 6e a7 c1 3f 37 92 a9 6a 68 f6 ba 3f
       0.13792212664923134 0.10532238582670393
0006b0 5e 3a c9 da 8e 51 c7 3f 6e a8 e0 42 66 59 be bf
       0.18217645342743344 -0.11855162747147727
0006c0 a0 1d c4 61 f7 ed c6 bf b8 82 6c 05 27 15 c0 bf
       -0.17913715623602133 -0.12564552082860359
0006d0 38 3d 7d 00 59 46 7f bf 37 2d d2 b7 fa fb b6 3f
       -0.007635448135104021 0.08978240001504366
0006e0 b6 79 0a 57 4d b4 91 bf dd 11 1b d7 d0 62 c9 bf
       -0.017289360463672764 -0.19832811835489297
0006f0 97 bd ff c0 69 cc 03 40 f7 f2 b6 f8 ca ca cf 3f
       2.4748110845609506 0.24837624687452095
000700 e6 f3 65 13 06 03 be bf c1 e7 2c 02 1e ae af bf
       -0.11723363851156385 -0.061875283971360336
000710 de 01 82 fe 0d b8 b8 bf 0e d8 4c 13 37 4d ca bf
       -0.09655845130510651 -0.2054814190138931
000720 54 b8 3c 6a 45 d8 bd bf 72 19 9e 0f 65 ca c0 bf
       -0.11658128589326228 -0.13117659819199506
000730 f2 5a 29 23 6e 06 b6 bf b4 bb b7 ff 68 f8 a0 3f
       -0.0860356174319852 0.03314521905473758
000740 3b 8b a9 e0 1c 0c c0 bf fd e6 0d 8f 0d 97 c2 3f
       -0.12536965341413428 0.14523477063249138
000750 95 f0 4f ec c1 3e 96 bf cf 14 db 44 32 c9 c0 bf
       -0.02172377590976334 -0.1311400257310766
000760 66 30 cc 90 b6 1d b4 bf d7 1a 55 6e f6 91 c9 3f
       -0.07857838664148317 0.1997669256909009
000770 2a 08 3f bb 1a 4c b6 3f c4 21 fa ce a5 e5 b0 bf
       0.0870987612861717 -0.06600414565230667
000780 25 c7 0f ff 09 8a c8 bf 01 07 76 83 76 60 b1 bf
       -0.19171261743718407 -0.06787815770624307
000790 aa b4 2e 20 40 26 96 bf 0e 20 18 9d 39 ff 94 3f
       -0.021630289043674956 0.020504856313010626
0007a0 ff b3 d2 43 54 20 b1 3f 36 f4 30 af a5 69 b5 bf
       0.06689955383144762 -0.08364329840783644
0007b0 e5 e5 b0 19 76 2e b6 bf 10 55 d2 f6 6f 12 aa bf
       -0.0866464436266124 -0.05092191589316475
0007c0 dc 21 cf 0e 5b 30 a6 bf 45 71 f5 59 26 49 b3 3f
       -0.043337674672844634 0.07533492752321987
0007d0 56 e1 77 37 00 80 b9 bf e7 45 74 c2 ff c3 b6 3f
       -0.09960938791471582 0.08892820832649982
0007e0 84 4b aa 77 69 d2 b3 3f a3 0e 4f 94 d5 a2 b8 bf
       0.0774293820525554 -0.0962346541482995
0007f0 89 ac a0 4e b9 bb c1 3f 6e 41 59 aa 29 df b6 bf
       0.13854137744178655 -0.0893426934137602
