Lab4/trained_rbm/rbm.hid--pen.bias_h.npy (npy, 4128 bytes, 1 tensors)

array f8 [500]
00000000: c7c1 04fe f5bb c43f 8188 f002 3d6d cabf
00000010: 8bc2 e879 10c8 c1bf 7bdd 1f95 1986 893f
00000020: 32ef 392c ee85 bf3f 1228 c92e 7322 c2bf
00000030: e5db 2378 a166 d6bf e6a6 e170 a3cb cfbf
00000040: 925f 2673 afd0 be3f ee87 e908 bd85 89bf
00000050: ef98 9ebe 6ec4 d5bf 7b04 e656 17c5 d8bf
00000060: 9802 dd99 b96e 973f dc1d c015 f80f ccbf
00000070: 8bbc ba45 e3b3 cabf d7c5 db3e cec9 cf3f
00000080: 65a0 ee17 a081 83bf 2816 ebd7 8b69 debf
00000090: 2723 8d7d 90d8 c33f 72b2 7d6d 8755 a8bf
000000a0: b3bb f445 354b bbbf 17a5 1a0c 0768 cc3f
000000b0: 4bb6 b05c 39ba bcbf 2b08 676a ed0a c7bf
000000c0: 2912 534e efef c5bf 9ec3 5b14 b2bd b8bf
000000d0: 3284 e590 af75 cebf 3618 21a1 a66e cc3f
000000e0: 9cd6 9ed1 0c7f cd3f 1ae5 3fd4 2031 afbf
000000f0: 82fc a0f5 c313 b4bf 8b0c 33f1 3f13 b6bf
00000100: c1c2 e6a6 9427 cdbf 2d3e af50 8c4e dbbf
00000110: 5f8b 7288 6edd cbbf e1e9 9265 73dd cdbf
00000120: 3741 d405 21db cabf e0d7 8bf8 008a a23f
00000130: 38df 782d 0830 b6bf f8da 1687 743d cc3f
00000140: 368e 6d2b b69a c43f fd46 1638 d577 c2bf
00000150: 9707 7cb4 e385 d23f 3991 3378 2950 c53f
00000160: e4b9 f7b5 7401 92bf 795a f34b d268 c1bf
00000170: dd0f bcf6 d55e c4bf 9381 ff1e 2daa d9bf
00000180: 2849 a567 63f2 b9bf 05fd 42fd e034 ecbf
00000190: 32c1 e297 7905 b43f 6684 b30b 37e5 ebbf
000001a0: c6b8 708e d074 8abf 9ae5 6a27 73f7 c1bf
000001b0: bccd 6b2d fdb0 96bf fbd8 bc68 3716 bebf
000001c0: 9c1c 97bb 8593 ae3f a6d2 57f8 7e41 a6bf
000001d0: 18aa e683 e112 d83f d5d6 c1ae d78a e3bf
000001e0: dd19 4861 8b8d c7bf a9b3 e37f a14c cd3f
000001f0: 9b6f 1f20 567e dfbf ad30 b12a bc32 e2bf
00000200: d2dc 43d3 4366 c4bf dcbf c4a8 ce26 d6bf
00000210: 5688 d607 8f51 d73f 4b65 4451 0b1a cebf
00000220: 0784 36ac 5eab d4bf ce6b be7b 3357 dabf
00000230: 9ba3 9dc1 5a4e b9bf ccd0 b21a 0b93 d4bf
00000240: 9ae8 673d 0b7e d1bf 4ce4 8d1a b477 d13f
00000250: 73a5 596e b13c edbf 3f9f 591a ff77 d2bf
00000260: a18e 2e33 315c c0bf 029b a4c0 5899 a43f
00000270: 532c d821 0597 cf3f 5702 a2f7 82b3 d4bf
00000280: 9100 6603 a64a c5bf 2f54 61bb fa5d d43f
00000290: dde2 9519 8ced d13f e016 09d3 a2d3 e3bf
000002a0: d71c ee43 2262 a43f 7338 dba1 e922 d63f
000002b0: ed1b 8d61 b4e4 e0bf 85a8 cd98 a05d e1bf
000002c0: 8ffa 3af3 a727 a5bf 08c0 ee85 4f95 b83f
000002d0: 3548 507c 98ac d7bf f41f 5b43 ff32 e0bf
000002e0: e967 3f2f 2bb4 c0bf 78ab e173 c4b2 ccbf
000002f0: 3079 4e6d 6de7 e8bf db98 39e5 e3f3 cbbf
00000300: 8c43 39f0 0349 c5bf 71c0 d306 cf8a 873f
00000310: 83e0 4f50 1316 d03f c737 72c0 04f7 b4bf
00000320: 9db4 49fd 6a67 babf f112 b080 f3ce ddbf
00000330: 1675 e62a 11f6 dc3f 2e52 8b71 1f6d c3bf
00000340: 0d62 2552 f9f5 e0bf b227 e5bf e493 a7bf
00000350: 5a76 c9b3 e079 c4bf 5af9 31c4 8a99 e6bf
00000360: 9cd2 ebf8 8437 c0bf 9a6a 1fe0 d8ab a5bf
00000370: aefc 9b80 f599 a4bf 3854 cc81 f09d c6bf
00000380: d3de 0232 8b27 c2bf ffc0 0ace f926 d2bf
00000390: 3a74 f656 8cfd d63f 40e3 98f4 8fee ad3f
000003a0: 67d1 f2ec 793c d9bf 9dae 1f8f 089f c03f
000003b0: 32e2 cc6e 882e d0bf ac1f 607e beb5 a33f
000003c0: 03f0 48ef 01e9 c7bf 2ad3 d8e8 4cdb c5bf
000003d0: 08c6 ea76 314d cabf c06a 46c4 d521 cabf
000003e0: fbab 2d55 e755 b43f f778 7a83 7e0a d2bf
000003f0: 14bd 8735 d01d a6bf 7a1c db77 5c3d bbbf
00000400: 1013 c41c f366 c3bf 4cb0 8e75 fc62 9dbf
00000410: a638 ff57 80a6 b33f ce34 d411 126e ddbf
00000420: e84d 817e 7908 c1bf 355a e50e 42a0 e4bf
00000430: 5439 ffc0 cac6 9e3f 9b0c 399f 8061 b6bf
00000440: 72fe 1f70 bc54 cabf 249a 6f40 f43d 98bf
00000450: f3ea 326f 739e d0bf 6c5c 2114 8f82 ddbf
00000460: 6242 a07c 2ac8 d9bf b943 36d9 0168 debf
00000470: 50a0 3714 58ce 7abf 77a2 6980 4bae 65bf
00000480: abd7 1fee b2dc d1bf c859 f464 b3b0 bbbf
00000490: 88f5 ee7f 4b73 d43f 963d 8c9e aa29 cabf
000004a0: cff4 b6b3 8f24 bf3f 8fee bbe2 c106 c0bf
000004b0: 1c6b 02c1 bd57 f2bf bac7 9cfe 863f c3bf
000004c0: 3d37 bdcb 98f0 d23f f3bf 6d1d be24 d1bf
000004d0: 69f1 a38d d5f6 adbf 37e9 1d52 865d c0bf
000004e0: f429 00b0 e26b be3f d4a0 8c05 f2e6 723f
000004f0: 96c5 929c 096b a9bf 1172 9ded 7a57 b1bf
00000500: 2355 c268 2d7d dd3f 9cef 579b 927a 8d3f
00000510: e254 d3a2 8198 a1bf f271 7271 d4b8 ca3f
00000520: f46f 8ce0 0bd4 d3bf afcf 6c06 2825 d0bf
00000530: b701 f4f5 0aab 9ebf cbf3 b6e4 418d c4bf
00000540: b69c fa4a 376e e0bf 6804 b7d7 f2b5 333f
00000550: 40a9 44a6 8aa3 b03f cbc6 fc34 f666 c33f
00000560: e211 4da3 6eed ccbf 0a10 b211 a734 87bf
00000570: 1410 a541 489d c6bf 1773 169b 8bb5 dabf
00000580: d5ba 135a 9bd4 bdbf c840 f519 e7ae c3bf
00000590: b932 1cb4 1b40 eabf 0abd 08ba 8741 cabf
000005a0: b551 cec6 e228 d13f 1ea9 8549 7f9e d7bf
000005b0: 9bcb f04c 2f68 d0bf 86e8 8732 f502 a73f
000005c0: 6610 1dec 7b12 b43f b394 b8a3 e026 b5bf
000005d0: aca2 1498 16c0 dfbf cf14 be94 548d aa3f
000005e0: 8d34 0a97 aa2f d23f 72fa ad4a 5b2b eebf
000005f0: d09e ea65 4559 bbbf 9422 5815 d274 d4bf
00000600: 4608 12f7 d8de c3bf 301a 9bd0 841c b4bf
00000610: c570 f4fc 696e acbf a40e 6bbe 8fe4 4d3f
00000620: 2a56 17d4 b978 d1bf 60df 9284 08e5 c6bf
00000630: 9e42 fa3a 2d10 c03f 3042 1154 052d c43f
00000640: 910b f209 b0ae a23f 8513 3c24 b745 d8bf
00000650: f421 63f4 cbac 87bf c5ec 280a f914 bebf
00000660: 4bd0 9e87 03ff ecbf 61d2 85c3 48c3 eebf
00000670: 24b3 bb4b e9cf ca3f c9c8 49ba c2ae bdbf
00000680: 50de cc95 670b b1bf ebc1 b921 844e c8bf
00000690: 425c c017 6e26 d0bf dd98 ca31 1491 c2bf
000006a0: d492 d5ca 0abc c9bf fd34 6b21 a6d2 bbbf
000006b0: a5f0 4a23 72d6 c2bf c37c 8ec7 0f4a d9bf
000006c0: 892e 9255 1a38 c53f b891 98b3 0186 b13f
000006d0: b81d 90bb 5308 db3f e680 5fa4 c326 cfbf
000006e0: 1210 a7b7 8ef0 a4bf 4f33 3d7d f173 bfbf
000006f0: 8478 5aa3 9b3a d4bf 24df 33a8 4879 a6bf
00000700: bffb f56d b26d 8c3f be51 a40b 222b a33f
00000710: 0a98 8463 bdb0 b3bf 58de b045 7fcd d8bf
00000720: 2966 b660 4b58 aa3f 1f0a 15fd 6f03 d7bf
00000730: 7c05 6963 8d1e 9e3f f153 cb4e 350e 90bf
00000740: 83d2 90a3 42f1 dfbf e478 8956 9337 d8bf
00000750: 48d2 02a7 d2f0 cbbf 3b74 d1c9 18f7 d03f
00000760: 7b33 692d 4d2c e0bf d4f7 ca92 1f12 dfbf
00000770: e679 f24b 12b3 ca3f 2e4b 006f 8fa0 ccbf
00000780: c74b 0f7b e5e5 debf 8bd9 275b 4b0e af3f
00000790: a439 25ca 4c76 d3bf 5645 95a2 cdff cb3f
000007a0: 560c 2994 7738 cabf a9f4 47e8 d558 ddbf
000007b0: 25bf c40e 00af c8bf db9f b6d9 1e90 a93f
000007c0: 2028 b3cf 68f6 c7bf 31f0 b825 f335 c83f
000007d0: 0b2f 4c35 59d4 c03f b731 c09c f282 c0bf
000007e0: d3e9 e1aa 359b cfbf ba57 f5e5 3ce1 b8bf
000007f0: 5999 451e 3717 e1bf e390 3d1c 5fa3 d4bf
0.16198611167193475 -0.20645868915113755 -0.13891797974203643 0.012462806571405185 0.12313736514800835 -0.14167632851086914 -0.35001408321789845 -0.24840205203809446
0.12037178574826005 -0.012462117037276923 -0.3401142941969643 -0.38702949033910955 0.022883319870063618 -0.21923733770402876 -0.20861473946340356 0.2483461195875367
-0.009524584513045118 -0.47519203267833854 0.1550465214770835 -0.04752753459510907 -0.10661633451375856 0.22192466822642906 -0.11221655381151512 -0.18002097793038394
-0.1713847286647632 -0.09664452549965438 -0.23796648573900964 0.22212679736748137 0.23043976054548387 -0.06092169371545193 -0.07842659708784264 -0.08623122824342226
-0.22777040624125358 -0.42666919593191005 -0.21769506132576574 -0.23332064113294762 -0.20981228623032575 0.036209135379905666 -0.08667040929946956 0.2206254634490603
0.1609714233446639 -0.14428200949310357 0.2894219648879867 0.1665088498040264 -0.01758367882387714 -0.13601139744305948 -0.15914415881718372 -0.40101173426776276
-0.10135480194484059 -0.8814549395100647 0.07820854147098968 -0.8717303494014572 -0.012918118807729317 -0.14036406922040784 -0.022159534356388497 -0.11752649600098046
0.059719256543354166 -0.04346844464808912 0.37615239983520743 -0.6106985486246354 -0.18400709390716843 0.22890108818628832 -0.4920859636019885 -0.5686932405310664
-0.15937087836912284 -0.3461186073427578 0.36435294881278446 -0.23516980617641034 -0.32295958345099546 -0.4115723331867088 -0.09885184504459092 -0.32147481543803447
-0.27331810948056445 0.2729311236685745 -0.913658824470231 -0.288574004871851 -0.1278134822761006 0.04023244239424707 0.2467962661033619 -0.32345651801009495
-0.16634059110584024 0.3182360486874271 0.28012373446067135 -0.6195844766413892 0.03981120185113134 0.3458808975818847 -0.5279180436417598 -0.5426791176262361
-0.04131817669030113 0.09602829952086733 -0.3699094022750871 -0.5062252345605871 -0.13049831206336585 -0.22420554788854097 -0.7782504210370345 -0.21838043873430632
-0.16629075269386495 0.011495225330208055 0.25134737818689973 -0.08189420412438074 -0.10314053233897132 -0.4657562977520647 0.4525187415072919 -0.15176766437675
-0.530026112023792 -0.04605021326513227 -0.1599694135538126 -0.7062429267823902 -0.12669431833605393 -0.04232671485779811 -0.04023711390436212 -0.1766949304370955
-0.14183177892640816 -0.2836288940552691 0.3592253541226601 0.05846071110540274 -0.39431617869856556 0.12985331524338486 -0.2528401453051031 0.03849597256345247
-0.18679832633813484 -0.17075501794320164 -0.2054807501458955 -0.2041575630544994 0.07943578557539858 -0.2818905147522765 -0.04319620755620171 -0.10640504766625894
-0.15157927422128425 -0.02869791476739207 0.07675935886729465 -0.4598431753264095 -0.13307112385756104 -0.6445627489982316 0.030055206327057007 -0.08742526900555207
-0.20571094012119634 -0.023673836167200105 -0.25967107638614023 -0.4610936829171297 -0.4028421608973415 -0.47509809696299105 -0.006544441278926241 -0.0026465868607384274
-0.279095394652695 -0.10816498961171483 0.31953704350947776 -0.20439656011192814 0.12165163171353587 -0.1252062184429303 -1.1464211978370207 -0.15037620002982327
0.29593486687086906 -0.2678675925626514 -0.058523820438469105 -0.12785414704905815 0.11883370205774907 0.004614777943779031 -0.04964475666327954 -0.06774109173915856
0.4607652209318351 0.01439394508906116 -0.03436665642372262 0.20876555957228465 -0.3098172848565348 -0.2522678435082026 -0.029949351560391437 -0.16056083362300763
-0.5134541000778856 0.0003007619740991786 0.06499544677050029 0.15157964312816427 -0.22599585508045467 -0.011330895640874434 -0.17667487340270382 -0.41733064790041524
-0.11652537297389227 -0.15377510802728112 -0.8203257100845668 -0.2051248224611089 0.2681204740013315 -0.3690489023198483 -0.25635893357974177 0.044944441240617514
0.07840704454889788 -0.08262447354407491 -0.49609913684484286 0.05185951533989341 0.2841593241690326 -0.9427925547204963 -0.10683091867633299 -0.3196301659050189
-0.15523826660143153 -0.07856016247669895 -0.05552989209010798 0.0009122564195753369 -0.2729935237124176 -0.17886454079939096 0.12549367313160514 0.157623926209014
0.036489011014985036 -0.3792550901273944 -0.011560052295309632 -0.11750751970332647 -0.9061296128115911 -0.9613384074023764 0.20946994970236077 -0.11594788597156759
-0.066580270836192 -0.1898961224246841 -0.2523455841014234 -0.1450524561998411 -0.20105109123246356 -0.10868299785507314 -0.14716936801221894 -0.39514536369274483
0.16577462366364085 0.06845102915446588 0.42238324467367816 -0.2433704903223834 -0.0408978079972543 -0.12286290462107029 -0.3160771460769711 -0.04389407208685572
0.013881105404605408 0.03743845359909724 -0.07691558532368972 -0.3875425510954975 0.05145488315174546 -0.35958480563218304 0.02941342276813462 -0.015679200109690986
-0.49910036061491087 -0.3783920617187404 -0.21828683047137276 0.26508159359747524 -0.5054078947956521 -0.4854811604999416 0.20858982761724504 -0.22364991111734284
-0.4827817632441875 0.060655932309532444 -0.30409545651209613 0.21874399603488354 -0.20484823927299328 -0.45854709323595927 -0.1928405830490131 0.049927677227344446
-0.18720731870263396 0.18914641706385418 0.1314803610078957 -0.12899620679708132 -0.24692412227507407 -0.09718685735910429 -0.5340838996169551 -0.3224714065347724
