Lab4/trained_rbm/rbm.vis--hid.bias_v.npy (npy, 6400 bytes, 1 tensors)

array f8 [784]
000000 68 5b 5b 6a 36 7f 77 bf 26 7e 6e a9 8a 6f 83 bf
       -0.005736553726555772 -0.009490092559473483
000010 5d 61 2c b9 80 ab 73 3f c9 97 91 4b e7 76 97 bf
       0.0048022297148907185 -0.022914518344258093
000020 44 8a 1f bf de fc 81 3f 67 9e df 02 c7 4e 8e 3f
       0.008783092696778579 0.014798693442528333
000030 8c 6a 7d c7 e2 ea 71 bf e1 5e 0f 40 03 2a 60 bf
       -0.004374395233606731 -0.0019731582146781256
000040 ae d5 aa 8e 10 cd 71 3f be 49 94 23 de a6 8f bf
       0.004345955540590847 -0.015454993687431858
000050 ed c0 00 8f c1 aa 7d bf f7 64 46 24 e8 38 82 bf
       -0.0072429238207833814 -0.008897603613876799
000060 d1 ce e6 d3 73 c6 82 3f e8 25 1d 4b cc 5c 74 bf
       0.009167580513213565 -0.004971311589380779
000070 df 21 82 a8 f0 90 8e 3f 3c d1 1c c2 77 97 3f 3f
       0.01492488874670611 0.00048205064568953063
000080 de ae 9e 85 08 e6 87 3f e8 fa f0 97 8e 6f 5d bf
       0.011669222429041278 -0.001796616794095202
000090 ed 1b 19 67 3a 31 66 bf 88 b2 c7 59 ad cb 64 bf
       -0.002709020679307886 -0.00253852708396202
0000a0 09 da d6 ff 44 73 71 bf 64 c9 ce ad 71 b5 7c bf
       -0.0042603202140783026 -0.007008976038309054
0000b0 79 74 05 61 88 d4 92 bf c6 a4 47 aa 90 57 34 3f
       -0.01838887302561829 0.0003103950678267738
0000c0 2a a7 54 5d 58 aa 91 3f 64 91 47 92 a6 6a 81 bf
       0.017251377769901634 -0.008504201258752793
0000d0 85 06 34 6d 85 66 78 bf 84 be ac e2 d2 f0 87 bf
       -0.005957146832999198 -0.01168980364090478
0000e0 be d4 af 2f 64 3c 82 3f 05 b7 8d 60 0b ce 71 bf
       0.008904249863898147 -0.004346889917412393
0000f0 32 be 82 81 ba cd 88 bf 26 c0 2a 7c a6 5f 60 3f
       -0.012111146046975472 0.001998734632557858
000100 7c f6 66 47 e1 38 81 bf a5 c1 e0 55 ba 9d 62 3f
       -0.008409271232149289 0.0022724761356800066
000110 aa fa 7a 52 c3 8f 7f bf c0 a3 18 2c 7c 04 8d bf
       -0.007705462434101898 -0.014168710799895012
000120 be 21 e0 1a d9 61 57 3f 4b f7 fd b9 fb 6c 60 bf
       0.0014271373906940966 -0.0020050922902887006
000130 c1 c1 2a e9 4c 31 42 3f e0 a6 ca 42 af 3d 76 bf
       0.0005551934758241604 -0.0054299207810488415
000140 83 6c a1 74 a8 a9 70 3f c4 2e 76 04 01 28 6a 3f
       0.004068048505440849 0.0031929035064360584
000150 4d af 4b 79 eb bf 88 3f 9f b7 9e 74 1a 7e 68 3f
       0.012084808005475312 0.002989818259229573
000160 56 33 64 1e f1 ff 84 bf 20 2a 76 50 7d e1 87 bf
       -0.010253795375797441 -0.011660555856697619
000170 3e 21 2b 21 89 96 75 3f 97 e8 f3 44 d6 aa 8a bf
       0.005270515119896678 -0.01302115819861553
000180 69 ee d3 e6 2e 5c 6f 3f 14 e6 c4 57 fd a3 70 3f
       0.003828136067225253 0.004062642689228752
000190 c1 81 f9 7f be e0 99 bf fa 36 50 54 37 a9 8c 3f
       -0.025271393357231057 0.013994629154719263
0001a0 08 3d 73 ec 0a 96 80 3f 92 ba 5e 40 23 ef 8c 3f
       0.008098683682332922 0.014127993966977646
0001b0 da 30 5e 49 fa 00 62 3f cf b8 fa 68 e0 7e 80 bf
       0.002197731820109278 -0.008054497913090234
0001c0 ee e8 24 b1 ca 62 53 3f c9 c6 1e 09 bd 2a 85 bf
       0.0011832217611087953 -0.010335423317744301
0001d0 73 38 01 ee 5e 63 32 3f 27 d5 c8 1b 5d 9c 8a 3f
       0.00028058116550234226 0.012993552599349712
0001e0 89 42 10 82 95 7a 86 3f f6 ae 1d 96 02 7e 6c bf
       0.010975997955058563 -0.0034780550494611885
0001f0 6a ea a6 34 77 74 83 bf 1e 14 8f e8 05 3b 62 3f
       -0.009499484342872584 0.002225410022648435
000200 95 51 1a dc 0b e2 5e bf b7 16 a1 ca 27 f6 89 bf
       -0.0018849483316546224 -0.012676535483602576
000210 91 eb a0 9d ed 1c 92 bf a5 19 cf f2 8a 8e 63 3f
       -0.01768847727383222 0.0023873056256633212
000220 1f 27 66 5c 29 ba 8b 3f de 10 ab 5a 8b b1 77 bf
       0.013538668758673432 -0.005784553863751733
000230 e9 75 13 2d ba 1d 8e bf 84 65 9f 78 a1 e9 7b bf
       -0.014705137730227373 -0.006814604517751181
000240 92 ab 3f ee e0 bb 78 bf db 42 50 db b9 f3 8c bf
       -0.00603855002916988 -0.014136745458047375
000250 81 40 c5 d2 f0 17 6f bf 48 4f cd 6f d8 f7 90 3f
       -0.0037955955105318244 0.016570455383159627
000260 72 13 f9 46 ca af 7a 3f d6 1f b5 f8 e6 92 8c 3f
       0.006515302796803778 0.013952068772269326
000270 38 28 fd 8e 67 47 78 3f 08 f7 9e 25 2b 50 85 3f
       0.005927471662127863 0.010406815610504619
000280 6d d0 18 d3 2e a2 69 3f bc 63 e4 1d 89 a5 47 3f
       0.0031290926497380884 0.0007216376796207384
000290 76 3d 9f cc 0b 89 14 bf 11 a5 f9 15 85 92 52 bf
       -7.833609120599057e-05 -0.0011335658708964728
0002a0 a8 28 05 b2 5b 5d 87 bf 6d f0 b4 4c 04 93 88 bf
       -0.011408535356754193 -0.011999162283807341
0002b0 8d 90 52 6a c3 c4 78 3f c2 df bb 70 1e b9 91 bf
       0.006047023144820096 -0.017307735090952077
0002c0 cd 95 cd f5 b8 28 90 bf 97 6d b4 d9 57 ea 5a 3f
       -0.015780344011906245 0.0016427858270791956
0002d0 84 73 80 31 f3 93 97 3f c4 ba ad 4f 8f b0 62 bf
       0.023025321861598794 -0.0022814559028384324
0002e0 3e 47 9d 43 91 f7 4c bf 08 16 62 40 92 11 47 bf
       -0.0008840045258955221 -0.0007039989584575754
0002f0 27 23 11 30 cb 97 88 3f 92 7e a1 d2 96 ca 7f bf
       0.012008273510348012 -0.0077615634455409244
000300 de ce 67 68 88 b3 9c 3f d3 55 e5 03 34 ed 69 bf
       0.028028613445669197 -0.0031648651048878733
000310 24 b6 1e ca 21 de 88 bf ae 1e 23 57 c3 46 7d bf
       -0.012142433148109318 -0.007147563026769594
000320 57 27 48 aa 1d 98 40 3f d5 73 aa 51 28 e1 37 bf
       0.000506414875929932 -0.0003643725810123487
000330 0d 42 3a 4e a0 f4 72 bf 8a 3a 72 9a 48 79 79 3f
       -0.004627824968011851 0.006219180685674739
000340 80 9f d1 90 e9 7c 53 3f 05 a2 09 80 da 04 86 bf
       0.00118944939756635 -0.01075144484748681
000350 a8 4d 4a 51 d5 d1 4c 3f 9d ad 86 b1 9d 66 94 3f
       0.0008795062627364085 0.019922698936779438
000360 7e ee 7a c4 de 2d 69 3f e8 b2 2c f4 86 4b 80 bf
       0.0030736304214238888 -0.007956556631677228
000370 08 7d ef de 80 d3 57 bf f6 da 04 c1 d4 c5 89 bf
       -0.0014542349342646105 -0.012584364071341874
000380 6a 8c 74 d7 99 6b 90 bf 57 4b 91 2b 7c 05 68 3f
       -0.01603546502623169 0.00293230297078521
000390 92 b0 03 db c5 48 7f 3f 76 84 e5 5a da 12 6c bf
       0.007637760995049219 -0.0034269585368496515
0003a0 9a 2d 41 a3 3a 3f 81 3f 78 e0 fd 0c 5d 82 30 bf
       0.00842138109887607 -0.0002519108938865487
0003b0 be a7 b5 90 5c 76 91 3f 18 46 d7 23 b8 1c 81 3f
       0.017053076107380376 0.008355558961656448
0003c0 b3 4f 59 ef c6 00 93 3f 67 ef 30 ba 48 9c 72 3f
       0.018557651861854384 0.004543575373698739
0003d0 84 06 2c 29 c7 d7 81 bf 2f 70 8b 2a 27 32 81 bf
       -0.008712345069855638 -0.008396440492497074
0003e0 b0 78 12 4e dc 47 4b 3f 93 3b a5 ac c3 71 93 bf
       0.0008325410564287341 -0.01898866406673567
0003f0 57 6d c3 6e ce 5c 92 bf 9e 85 da f3 c2 94 92 bf
       -0.017932153234921113 -0.018145605214731846
000400 8e b5 c6 f5 d4 82 8e 3f 71 46 5c c8 0b a1 64 bf
       0.014897979498381255 -0.0025181989793814853
000410 64 82 1a 21 ed 52 82 3f 52 f0 34 81 ce 7a 6e 3f
       0.008947231838932264 0.003720668153304665
000420 b1 68 13 55 ed 00 76 bf 04 7d 3a b2 97 da 76 3f
       -0.005371977881816801 0.005579559863377218
000430 92 da 42 ec 66 54 6f 3f b7 f8 76 44 03 f6 73 bf
       0.00382442571762038 -0.004873287928999818
000440 7c 9d 48 06 68 ab 80 bf 5f 22 b4 c7 5e 6c 7c bf
       -0.00813943165947139 -0.006939287409530508
000450 de 0e f6 60 0b 38 76 bf b2 f9 e8 1a 3d 64 56 3f
       -0.005424541900882677 0.001366672203985436
000460 12 73 85 5f 8d 66 8e bf c8 b6 14 1e 13 95 81 bf
       -0.014844040372446386 -0.008585118632790226
000470 c0 84 50 d2 91 09 75 bf 7c 0e f3 8d 4e 49 52 3f
       -0.005136079421420081 0.0011161105283442876
000480 17 b7 90 0f 28 b1 8f 3f a1 0e d4 f1 19 c3 80 3f
       0.01547461793424136 0.008184626286044607
000490 fb c1 a1 b4 43 47 95 3f 28 85 e8 55 7a 8c 78 3f
       0.020779664897817778 0.005993345139843322
0004a0 da 77 e7 2e 5d 7f 68 bf 90 6c 3c 48 9a dc 81 bf
       -0.0029904193863634467 -0.00872154744097589
0004b0 07 d4 d4 e3 93 f7 88 3f 76 d1 16 a8 36 00 8f 3f
       0.012190966978417718 0.01513712597338988
0004c0 3c e2 03 5b 84 76 70 3f f8 fb 89 b5 9f 5a 84 bf
       0.004019276632100385 -0.009938476302748342
0004d0 45 4a d6 7f 50 8f 88 3f 16 6f d5 4e c2 ce 8a bf
       0.011992100621488375 -0.013089674025358582
0004e0 cf 27 74 39 9c ed 72 bf 83 15 d6 a2 bb 74 8a bf
       -0.004621134044336685 -0.012917962939136945
0004f0 bb 40 0e 0d 23 09 76 3f ea 19 29 e7 63 ae 6a bf
       0.005379807393993181 -0.0032569838743114936
000500 c0 35 53 d7 b1 5c 7f 3f b9 d9 e9 42 e7 30 94 3f
       0.0076567599218839155 0.019717801531862842
000510 49 29 c4 b8 b5 71 95 bf 9e 5b dd f2 de 2c 92 3f
       -0.02094158115600323 0.01774929387405743
000520 e3 8e b4 8b 5b 9c 5b 3f 9c b8 4a 7d aa 06 70 3f
       0.0016852277756890736 0.003912607168485984
000530 25 37 46 e6 93 2c 73 3f c8 08 8e 1c c8 d9 8e 3f
       0.004681184513527535 0.01506382310049438
000540 b2 9d bf 89 c7 f9 77 3f 08 de b2 2c 4e da 83 3f
       0.005853442617059045 0.009693728198143084
000550 74 0f f0 f8 5c 98 82 3f f1 d8 6c f1 e0 0d 86 3f
       0.009079672190644074 0.010768658988677933
000560 4a 8e 3c c5 05 89 81 3f e7 af b4 b6 75 14 73 3f
       0.008562131005937296 0.00465818387901249
000570 67 3b 63 44 7b d4 76 3f a8 09 e6 5b 50 81 87 3f
       0.00557373191095576 0.011477115444681399
000580 73 f1 ee 53 2e 5a 64 3f 7f 01 f3 98 7f b3 90 bf
       0.002484407886610801 -0.016309732160836084
000590 a1 95 4f 27 d5 54 70 bf 72 20 b9 ec 65 48 82 bf
       -0.003987152701460246 -0.00892715099975325
0005a0 7a 15 a8 63 45 e9 99 bf 60 59 25 70 95 40 8c 3f
       -0.025303920943789283 0.013795058712884056
0005b0 b1 3a 9b 15 b3 10 7a 3f d4 3f d6 e6 ce 8c 62 bf
       0.0063635821804399065 -0.0022644082116087625
0005c0 5e 9c 3d df db 1d 58 bf a5 d5 b0 7e 71 de 51 3f
       -0.0014719626605826023 0.0010906322811597782
0005d0 38 e3 49 b0 9c 8a 8e bf 4c 32 a0 f7 fc 1e 86 bf
       -0.01491281903257545 -0.010801292712153153
0005e0 9b 07 59 fb 08 26 93 3f b8 68 61 d4 da c0 77 bf
       0.018699779835749202 -0.005799155047578157
0005f0 45 07 c3 d5 e1 98 76 bf 6b 9e 86 57 88 17 80 bf
       -0.005516893547054928 -0.007857384844853507
000600 15 59 84 60 a6 e3 80 3f e4 07 19 8c 6c 98 89 3f
       0.008246707745041474 0.012497756982273907
000610 f4 a9 e3 39 c2 d5 80 3f 8f 2e eb 0f c3 b7 85 bf
       0.008220212356225588 -0.010604404376315628
000620 9b 07 72 37 95 34 67 3f d6 ad 1a 49 27 6a 77 bf
       0.002832690657272386 -0.005716470202667042
000630 9a f6 8f 61 73 ef 84 3f e1 3d 26 6c 6c 64 73 bf
       0.010222340979449119 -0.004734443211773493
000640 1c b7 da 98 d1 d6 6e bf 0a cf f5 d5 d8 08 89 bf
       -0.0037645429318534773 -0.012223905591532542
000650 7a 58 7d 7d 17 88 81 bf c3 c9 1e 5f 4b ea 38 bf
       -0.008560355679645183 -0.00038017597318709353
000660 2a d5 e6 75 05 ae 7f 3f 8e 7d 54 f6 14 42 90 3f
       0.00773431904820158 0.015877082381050615
000670 9a 41 d6 bb d6 21 6e bf 29 ba e9 d0 43 4d 68 bf
       -0.0036782449739762415 -0.002966530278448749
000680 18 7e 15 d2 af 65 83 bf 8d c4 a4 3e f6 fa 5f bf
       -0.00947129592776634 -0.001951923821774923
000690 f6 94 d2 af 52 f2 7c 3f 29 59 d4 74 db 26 86 bf
       0.007067034716930145 -0.010816301825383139
0006a0 6b f7 75 a4 c3 a7 80 bf 53 a7 fb 08 be d4 5f 3f
       -0.008132484871335518 0.0019428115664887515
0006b0 3c c4 b4 4e e6 e8 6d 3f 80 ae f1 9e cd c9 73 bf
       0.003651094264249836 -0.004831126410049458
0006c0 93 08 8f 63 7a e7 8d 3f 80 79 b2 61 b6 c8 8f 3f
       0.014601665652552753 0.015519547325592908
0006d0 f6 fa 89 11 97 24 90 3f 00 34 7d 7a 99 6f 67 3f
       0.015764580197806098 0.002860831987993695
0006e0 9c 85 1a 64 68 98 8b 3f 1f d4 f2 f1 8b 49 89 bf
       0.013474288515967818 -0.01234731037252784
0006f0 d6 0c f4 65 79 6a 7b bf d1 ee 0b ed 9f 2b 87 bf
       -0.006693338596281259 -0.011313676282490278
000700 ac ac b3 1e 56 b8 60 bf 21 f7 67 23 fe c0 96 3f
       -0.0020410234479775937 0.022220583830850352
000710 5b 48 73 98 4b af 89 3f ec 17 89 38 30 81 80 3f
       0.012541380491175305 0.00805890724690169
000720 92 bd 39 3a 3c 3b 19 3f 0a 03 29 4c 16 ae 81 3f
       9.625010584967387e-05 0.008632826041436132
000730 38 bd ac f4 91 90 62 bf a5 b5 52 57 ca 98 82 3f
       -0.002266202039571088 0.009080487050904315
000740 ce 7e ec 12 8f 4f 64 3f e5 a7 b1 89 d6 1d 65 bf
       0.0024793428814432255 -0.002577704448005302
000750 40 31 f2 2f 16 1b 75 bf 3c 9b 1d 29 b9 a7 90 bf
       -0.005152784985636594 -0.016264813551426047
000760 98 36 65 1a bb d8 63 3f 76 e0 b5 c8 d9 3a 6d bf
       0.002422681270366333 -0.0035681012720339368
000770 70 5f ea fc 3c 6c 82 3f 37 ec 70 17 e9 61 64 bf
       0.008995510547989943 -0.0024880936212219556
000780 5f 09 ef 7f 79 0d 93 bf 8e f2 bc 6b 82 b8 7b 3f
       -0.018606089051681148 0.0067677588047529
000790 28 f1 28 42 5b 0d 49 3f d1 e1 97 5b 0e f1 90 bf
       0.0007645316694105163 -0.016544555988703472
0007a0 e0 23 35 5e 42 e2 82 bf b2 02 08 19 53 39 8d bf
       -0.009220617771136419 -0.01426949424876631
0007b0 0c be 52 00 dd 42 7b 3f 4d 06 cc 10 5e 71 50 3f
       0.006655562673742132 0.0010035914048675155
0007c0 89 49 35 d1 79 0b 8c bf 88 b8 76 8a e0 24 81 bf
       -0.01369376344397179 -0.00837111876066056
0007d0 c3 8c ed 4e 29 c8 7b bf d6 9a e6 7b ce 56 1d bf
       -0.00678268562373602 -0.00011191973951572438
0007e0 63 3a 70 a0 6d 75 2a bf 23 b9 db 59 66 ae 83 3f
       -0.00020186389176087273 0.009609984986550807
0007f0 48 67 b4 3a 25 c2 85 bf 66 48 2e ab f6 c6 91 bf
       -0.010624209264779375 -0.017360548208280945
