Lab4/trained_rbm/rbm.pen+lbl--top.bias_v.npy (npy, 4208 bytes, 1 tensors)

array f8 [510]
00000000: ed53 eb56 b25f 88bf 1183 96a5 61e9 893f
00000010: 2706 60d3 f540 773f f79c c6fb 5b84 92bf
00000020: 28b8 2efd a17f 953f dad9 abd0 7a8b 763f
00000030: 03e4 6f0b 4da9 74bf 2cda d2e1 5bbe 82bf
00000040: 34fe 82ba 7b8c 733f b549 116e bce1 8dbf
00000050: 2e4e a46e d444 88bf 9faf 79ac ed32 63bf
00000060: 7c9d 5c02 f074 6f3f 258b c04f 8185 803f
00000070: 3b9f 3462 8e13 653f c863 8e41 7ee9 82bf
00000080: 9ce3 92a5 8b8b 6a3f a0e6 f91d 5b24 84bf
00000090: 9860 945a 6b27 943f 92ed f269 b7da 5dbf
000000a0: 936e a02a 7785 563f eecd 5096 8306 7bbf
000000b0: 8d41 c078 272a 833f bacb a5d3 71f2 7cbf
000000c0: ed0e cddc 9ef6 9b3f 7bd1 90e4 4485 47bf
000000d0: ae88 adfb f15c 85bf d611 7d13 6c2f 803f
000000e0: a6e3 c456 1b0a 70bf f2b5 0d2c e695 68bf
000000f0: bb94 e737 46b9 743f 78d3 a666 587d 403f
00000100: 15c6 0cb5 3d5a 6e3f e85e 5e92 adea 7b3f
00000110: 56bc 3b75 917d 6dbf 61dd 57d9 bd45 83bf
00000120: 5efa 9779 2957 7cbf 5685 b0b8 880f 8b3f
00000130: 428f fe64 d8cd 61bf c81d a7c9 51b8 6cbf
00000140: 358e 747b 1d02 613f fc52 9efe 66b6 773f
00000150: 984d 8b47 c735 7cbf 73f3 21bc 3115 843f
00000160: f313 4746 7f36 603f de12 14f7 2dca 703f
00000170: 93a7 886f c5da 8f3f 13cc 117d 7dea 80bf
00000180: f733 83ae 8ad0 8a3f fe46 d63c 30b5 903f
00000190: 4769 be9d c763 70bf b078 4612 f653 4ebf
000001a0: 39c9 28d9 5b96 dfbe 6a20 3a72 865e 8ebf
000001b0: 0021 284a 62c3 68bf 05a1 6f81 19fc 613f
000001c0: a19a 0588 bdb8 3c3f c1d5 13f5 0453 80bf
000001d0: a936 3d86 c8fb 8f3f 2a06 0031 f351 7ebf
000001e0: 66ce 2a65 c682 803f 2d84 7136 5bb1 863f
000001f0: 43f8 ad86 23cb 873f 35e1 3f3d 21a2 863f
00000200: 1a86 820e fc25 893f 1f47 466a e748 8b3f
00000210: 53e1 3c06 f442 933f b103 564d 2ee3 65bf
00000220: 4c36 8854 1218 313f 05fe 6b5e 7ddd 8ebf
00000230: c7ed 8519 1608 933f d7f1 c4ff 0850 5abf
00000240: a9da 9c49 5df7 853f 718b 6328 cf25 8ebf
00000250: 5e82 798c 9436 7bbf 6140 985d a4de 5c3f
00000260: 7bc4 ea86 4291 8d3f 95c6 0f2f fe1c 873f
00000270: 6f02 2f0d 1178 953f ad12 6e18 fe63 85bf
00000280: a09c 6cbe 87ea 61bf 882b 3c73 56c3 663f
00000290: f3a2 88bb bc82 98bf 5b9e 1c6d 29d5 383f
000002a0: 6111 ae29 7787 87bf be24 620d 9557 893f
000002b0: 10e7 e229 2613 8f3f 3344 e47f ae65 94bf
000002c0: 36f6 777b 237a 7e3f 5978 34d3 4403 74bf
000002d0: 0a13 0b15 169f 863f 9a7e 6c35 7acb 8ebf
000002e0: 2dbe 2a72 dc80 76bf 5a26 9e5f 1523 73bf
000002f0: 0dcb e617 f790 86bf 9b6a f8fb 2ac7 7abf
00000300: 8e55 8e3e bc35 5a3f 95b7 a04c 4bf4 70bf
00000310: be1b f897 fbb6 773f 386e 0617 7ef9 71bf
00000320: 5cfe 8098 d141 7c3f 21d7 a950 74ac 8b3f
00000330: d8ce 998e 426f 823f bb69 88fa 246a 693f
00000340: 9c49 c241 4bfe 89bf 25f0 b4b0 ab0b 5e3f
00000350: a8d8 8653 1182 77bf eaee 8610 e0ef 3e3f
00000360: f268 3c4d ac28 853f 9b7e f625 395c 703f
00000370: 5095 c4fd 3615 51bf cc2e 39f8 8f03 8c3f
00000380: f822 ef2d d593 77bf f88c 1142 7f56 8bbf
00000390: 6dd0 6fab 8fa8 6d3f f758 d7aa a476 70bf
000003a0: a330 9fea b815 74bf aad3 387c 3183 77bf
000003b0: 5087 49e2 3e45 8b3f ac08 7646 83a8 66bf
000003c0: 67ed d1be cb49 5f3f 5221 85e7 c627 973f
000003d0: 5007 881e eb6f 4abf f74a d91c b4e5 44bf
000003e0: f647 cac7 adf9 793f b699 ecb0 54b1 683f
000003f0: 0713 c710 fd05 913f 0c3e fe08 6880 8a3f
00000400: ce6f a5b6 b73a 6cbf 16e0 cfed c25f 6cbf
00000410: 5055 ce88 4b2c 7a3f d7a3 3355 ce0e 873f
00000420: f72c 21db 9cf4 85bf 91b9 6199 4f0f 87bf
00000430: 5be3 d05c 0cc0 84bf ee4e db89 b9ca 78bf
00000440: 586a e78c 6d65 85bf 56a1 3e03 ffcf 753f
00000450: 7543 a58a 7fd3 4c3f 1c6d 4219 3f7f 8e3f
00000460: 0e17 bfed 9b47 9dbf b930 4a7b 0917 723f
00000470: 71a6 a6fa 0df1 833f a11a c64c a54c 7dbf
00000480: 29b2 91e0 c8a2 89bf f289 9aad 38c6 6d3f
00000490: 2f2e 62bc 7415 813f b7b2 3b9d e249 833f
000004a0: dc9d 26df fa1f 84bf 63e7 62cd 2acb 863f
000004b0: a04a febf fe82 593f 38c8 9585 3eb8 71bf
000004c0: 5f38 131a 4354 95bf d284 e030 a7c6 84bf
000004d0: 3606 33c7 2fbf 943f 6aee 2f6c cb66 92bf
000004e0: 608d 7016 31a7 8bbf 90a4 570d f66f 943f
000004f0: 6ae5 9087 02ac 73bf 915a b9f4 8ab8 783f
00000500: a320 38d9 39ce 81bf ed3f 2ec9 8233 77bf
00000510: b5e4 60a5 dfa2 4a3f e0de dec1 d6d0 81bf
00000520: 2345 e5bb fe12 79bf e5ed ce89 6115 933f
00000530: 882c e422 b185 8dbf 5aa5 799b edf2 53bf
00000540: 75d6 c298 f9e6 8b3f b54b 7dc6 1d20 703f
00000550: 98a1 13d9 3752 82bf 6ac0 2d13 d68f 7bbf
00000560: c02b 6447 9fd4 133f 5c69 809b d40f 4e3f
00000570: d696 6f37 d04e 713f 043d ebe0 956b 7a3f
00000580: 7b77 4ba4 3a7a 45bf db81 8572 15a2 8abf
00000590: bc3f bcba a1ef 493f 9563 cf01 f943 823f
000005a0: 92b4 5f7b e4a3 74bf fee4 9914 af14 903f
000005b0: 0173 71f4 daca 8e3f 4185 915c 2ca3 73bf
000005c0: 792f 8ed9 f783 32bf 6c01 7e14 c733 513f
000005d0: 3e50 cc2d ebc7 86bf a34b 0397 3876 873f
000005e0: 852d 6cc3 00cc 703f a92b 9644 d79a 7dbf
000005f0: 6905 1de9 475a 67bf b5cd 0c3d 02ce 663f
00000600: ed0b 4051 60b3 98bf 8544 ea1b aa8d 433f
00000610: 7210 ec69 db6d 87bf 75ba 1711 4b23 763f
00000620: 7527 8ffe 48d2 933f 41f2 2e95 dc59 7bbf
00000630: 01a7 66a3 db8d 7b3f 7e42 c8c5 4fee 6a3f
00000640: cd70 9685 7875 8d3f e005 b702 5e35 823f
00000650: a032 ef43 6c5f 58bf 65d4 b8ef 7d4a 413f
00000660: bf59 4db7 8c8b 7fbf a8a3 d4e1 9e56 91bf
00000670: dab1 62bc d03c 843f 58cc fa5c b1fd 793f
00000680: 12bd 26b3 66f7 84bf 3cd6 4436 b96f 583f
00000690: feb5 ff3e ff0b 66bf 2240 59f4 f0f8 73bf
000006a0: f5c8 7191 db8f 84bf 120f 1c7a 1f3c 4f3f
000006b0: de71 eec0 7875 6f3f 04c0 5dc2 fc96 73bf
000006c0: d743 cca8 bb84 8a3f 910a 81f2 bea5 74bf
000006d0: a30a cdba 9b12 82bf dfbe 18ba bb48 5bbf
000006e0: 176a f3cc 9156 673f 6a85 e315 79b0 723f
000006f0: 8343 064f 8d3c 5a3f 09bc 1310 c789 8ebf
00000700: 3b47 822b 6cc3 7e3f a6bd 89fe 68f8 803f
00000710: 3554 48ec f178 8e3f 6dc5 d5c8 2f0f 8cbf
00000720: c156 72bd 9491 943f 6733 f626 896d 51bf
00000730: 5222 3731 0411 513f 0a03 16ec cc91 833f
00000740: d2e6 ed7f 2512 863f d142 aee4 2971 8bbf
00000750: 9aef b759 a2db 923f 5acc eaa0 6547 533f
00000760: 56ce 31ea 6c70 753f 871e d96e 59c2 7bbf
00000770: 5880 5028 f329 723f dece a027 57e1 6bbf
00000780: ee17 17b6 fbde 8abf 31a3 cb84 cb3f 8cbf
00000790: 36f2 7286 9243 603f c4a2 0e55 74f3 8a3f
000007a0: 6cdb 6382 6dc4 573f bbf1 a2d7 b5d0 70bf
000007b0: 5b80 77a2 12fb 843f 2a53 479e 37e2 8cbf
000007c0: 32fd e4a7 072f 833f ae49 6768 000a 7fbf
000007d0: b790 0552 bcc7 8abf f51a 76f0 8523 833f
000007e0: 91c7 6163 cb7f 90bf 7715 0c4a 4f94 7b3f
000007f0: 5acd a995 dd33 8dbf 17a8 8a9f 4b44 883f
-0.011901276853146537 0.01265217100700647 0.005677185303285571 -0.01808303570001343 0.020994692876847548 0.005504112001963846 -0.005044270473256954 -0.009152143315401672
0.004772647204105907 -0.014590713604921793 -0.011850032450218508 -0.0023436204972337583 0.0038399398498715747 0.008067140814153337 0.0025728016786565034 -0.009234415412537347
0.003240368602373823 -0.009834968426037094 0.019681622890033695 -0.0018221655989652846 0.0013745940909818718 -0.006598009121308019 0.009357746479538043 -0.007067150722252552
0.02730797026312264 -0.0007177912131113706 -0.010431185238932574 0.00790295061563821 -0.003915888588658689 -0.003001164965488406 0.005059503832375241 0.0005032235761094203
0.0037051396579037645 0.0068156032702046745 -0.0035999146438068603 -0.009410365290917157 -0.006919061671850272 0.01321322263362627 -0.002173349996114655 -0.003505859128583675
0.002076203901781227 0.005789186785382535 -0.006887224612643371 0.009806049875118216 0.0019791112738141103 0.004099063445441612 0.015553991762391728 -0.008259754542654851
0.013093074274729928 0.016316179001996105 -0.004001407385567929 -0.0009255363007019315 -7.531008480431757e-06 -0.014828729973729266 -0.0030228538246356296 0.002195405784267137
0.0004382574770915114 -0.007970846871539263 0.015616957279827775 -0.007402372328216647 0.008061933481577199 0.011080467795354288 0.011617925212473184 0.011051425630271264
0.012279481118016956 0.01332264702867608 0.018810093765951063 -0.002671804841782387 0.0002608341933701727 -0.01507089561846354 0.018585534389314675 -0.00160599592989207
0.010725716408712076 -0.014720552845067765 -0.006643848675225243 0.0017620663769584365 0.014437217466680466 0.01128576832886389 0.02096583025900361 -0.010444626923125833
-0.0021870280501335576 0.0027786911467777044 -0.023936222978735832 0.0003789163721301441 -0.011488848647566998 0.012374081107071052 0.015173242715139007 -0.01991913467015056
0.007440699198466618 -0.004885929916126208 0.01104562045782977 -0.015036539798131177 -0.005493985287713649 -0.004672130098592209 -0.011018686692158686 -0.0065375975678089405
0.0015997255634137872 -0.004139227045056777 0.005789740359893379 -0.004388325251422347 0.006898707135462336 0.013512524329808042 0.009001274086791453 0.003102371429361398
-0.01269205851011606 0.001833837190885931 -0.005739276581541976 0.0004720613510717913 0.010331483943037931 0.003994200931088844 -0.0010426556610324163 0.013678669703174683
-0.005756218654774818 -0.013348573879005773 0.0036204153107011667 -0.004019397003011563 -0.004903528528256515 -0.005740350057341562 0.013315669327485985 -0.0027659000367644317
0.0019096841527062815 0.02261267459951572 -0.0008067987483288772 -0.000637734361314506 0.00634162791233627 0.0030142454264876174 0.016624406956697004 0.012940228247116735
-0.003445967498164371 -0.0034636313634983746 0.006389899307483418 0.011258708930158718 -0.010720467984489874 -0.011259672039355436 -0.010131928045767393 -0.006052708396697899
-0.010447364676044277 0.005325313704738063 0.0008797047387735084 0.01489114089809234 -0.028593479524508907 0.004416501080992835 0.009737118922959117 -0.007153173163152588
-0.012517518380456743 0.003634558391085501 0.008341705321320251 0.009418268607498488 -0.009826621947310814 0.011129698174375318 0.0015571105759348072 -0.004326099611136107
-0.02082924696588184 -0.010144525698765259 0.02026056912723658 -0.017970255354141797 -0.013502486703208916 0.019958347858765324 -0.00480271328074742 0.006035368725483396
-0.008694126073365565 -0.005664358980439471 0.0008128730794460167 -0.008699109832249474 -0.006121630720671764 0.018636249576713743 -0.014415153386400328 -0.0012175865539581694
0.013624143576048223 0.003936878499945108 -0.008945881187586477 -0.006728969793457032 7.564756547055653e-05 0.0009174144861419475 0.004225552888760217 0.006450257743110702
-0.0006554399811553446 -0.01300446277372285 0.0007915057844645117 0.0089187101056483 -0.005039112575088061 0.0157039028476662 0.01503535326463057 -0.004794286048395436
-0.0002825241186250531 0.001049942411526751 -0.011123502097270085 0.011455957516238352 0.004100802404319541 -0.007227745905207175 -0.002850666475666831 0.0027837794990774553
-0.024121766051404526 0.0005967217073977882 -0.011440004510866884 0.005404751996577963 0.01935686162668256 -0.006677495623929775 0.006727083169985938 0.003287463956674507
0.014384213997623263 0.008890852411130135 -0.0014875943449964915 0.0005276789592644325 -0.007701444313019611 -0.01693199399338466 0.009881621121473328 0.006345455956466038
-0.01023750528551529 0.0014914807043856634 -0.0026912675166304014 -0.004876080730881001 -0.010040011764634186 0.0009532121368640309 0.003840194556188544 -0.004782664624016778
0.012948480690768633 -0.0050408800962623715 -0.008824555052006139 -0.0016652901907824797 0.0028488967578657143 0.004562829008336914 0.001601350781218453 -0.014911227396138942
0.007510588206189268 0.008286304729351834 0.014879121802588194 -0.013700841251849305 0.02008659750261788 -0.001063713014306711 0.0010416546764294887 0.009555436091206033
0.010776799170105465 -0.013399436274796813 0.01841596291158929 0.00117669033685954 0.005234170387769041 -0.006777142856271851 0.004434537729167763 -0.0034033491365564736
-0.01312061929173677 -0.013793554296584883 0.001985346014036683 0.013159664960612168 0.0014506406237708392 -0.0041052916732806045 0.010244508345692951 -0.014103350179462366
0.009367046176179093 -0.007577897637434479 -0.013076277974228707 0.009345098877714156 -0.016112497273247654 0.006733236049290318 -0.014259081964360366 0.011849013143848492
