Lab4/trained_rbm/rbm.vis--hid.bias_h.npy (npy, 4128 bytes, 1 tensors)

array f8 [500]
-1.427220535760735 -0.22047154400307944 3.105365445310379 -5.324056655288284 0.70935294954491 -2.4724028097284534 3.958307697819043 0.8959000972892102
-0.20941161001272987 -0.9450785706740127 0.6675838401270633 -2.059539738609774 1.1820183933726187 1.5146275744110473 -1.3877762477018512 -1.7799857018988785
-0.06184456608164014 -2.826512066990571 -0.3094212786559121 -3.3601095314178315 -0.12499925155085968 -0.11293237045974167 -1.1412398243532886 0.3102795306185204
0.6275528041763567 -0.692121159936433 0.7707585001593862 0.1925244820547004 0.2546571837482319 0.4354307158809294 0.06876216042186375 1.2866589259972314
16.296858378020136 -0.09980231489941227 -1.5546078692386553 0.051490117031595325 -1.56048015471525 0.9681200782319537 0.875647515113992 1.4661237737215531
0.47968620385460037 0.46433896160471444 -0.308764716770547 -0.30982552103029604 -2.328124230803479 0.9524278621515765 -0.029821925609034135 1.866250568301127
0.32174134151135636 0.4298023077511606 2.169999364850477 0.049706321110252846 0.9217201122077343 -0.49978968218136033 -1.998657258854507 6.169523974099439
-0.013528373029944663 -0.27421289800606796 0.8085331434366105 2.2226829313716028 0.2207565835190065 -0.28673865858552844 -0.3943544255109247 0.3899886409646207
0.8655045674989368 0.28448678648860737 2.596848601501549 0.6216572743390061 -1.3640077341481545 2.309741789381744 0.8910416181977272 0.29794774806637303
1.3811168469088158 -1.0433933698448108 -2.2042014051477286 1.1556011429777966 3.0056345413224577 -5.571398901794556 4.164930440283875 0.26359579465031663
0.35927393822174536 -0.5088170244283131 33.5696298747012 0.4148100196535265 -0.5771940362133336 0.21916654121757173 1.4669218863413394 0.7627499439168695
1.0349689511560614 0.57527458841426 -12.980940753073718 1.376516507623232 -1.10067574991251 -1.616191481556074 -1.481378418463801 0.5487191536869083
0.13980811872937035 -0.3898890865274123 -0.4326637370088817 -15.204362935977 -8.695985576917636 -0.7075584939999132 -0.25824829419446954 -0.8313217572805858
0.20089954870972515 -0.4686846425669207 0.2639580348646309 1.717601703465317 -0.6627664994681196 -1.3324247753465632 -3.0173019144834825 3.1053921351061704
-2.787136595904175 1.1869780748554493 -1.592014354851627 1.3208611943732316 4.022900164548126 -0.008240035679287517 0.12414446009553563 -0.11156691091021868
0.951345776642136 -2.559904000144259 1.111363461684871 1.8370157414625716 -0.12528166942696525 0.22944735771670122 -2.9541275497543795 0.17007533884874856
-1.4523578124787915 -6.603654100092496 -0.5280900017039765 -3.0199473110773982 0.7377190708031398 -0.20629803265383706 -0.4924339457299409 -0.6664047953296889
-0.4354499828416865 -0.1416880400589874 -8.62959013640961 -2.371686855014231 1.8142810692982951 -0.44803469765897463 -0.07369206923587976 0.7739590886757055
-1.4094243071396484 -2.370905454204335 0.11137808644006975 2.285151677992158 -1.991376610123482 -0.5709565679445663 -3.1599886378432416 0.13484887349131117
-0.32639968562285726 -9.033141432542319 -0.0617830631478333 -4.719028151237198 0.14993309975114213 0.2637630880540222 -0.6066944211407962 -2.206836357805091
-0.014589322135819727 -1.4897801766632062 -1.8702549065453953 -5.28253596653299 0.24661296345923134 5.275775765826853 -2.93330165706036 -0.1920627016275345
-2.42281559632838 -0.03037648416435766 0.12082819365328193 0.006278733262191834 3.9804077581715287 -0.08563217613526278 -0.4344088437108605 -0.3086982783594869
0.9074696720093218 -0.2985010325506209 0.224740702885335 -4.173984295033104 -4.928882291624955 -5.3536454018015975 -1.5952102491912132 -0.08058454539944601
0.37157646820265633 1.9565059255595891 -0.32821000980111376 -1.3098194853332552 -0.24012692415574927 -3.030484351479157 0.23944205907099503 0.2535652727334533
-0.5252549002376908 1.1093179089968395 0.9512482715244608 -0.7459968142768594 2.0693556735713865 -0.22564221862298692 1.3575742711805792 0.4329679989294124
-2.0163248765167108 -0.6533479482711568 0.6340570990843324 2.4337455963824683 0.16200323765942531 -0.7219219138433541 0.9789540529939926 -4.42482104145912
3.0767548592902663 0.7506541499978481 1.4124303201606008 0.9628283623656697 1.254200814085585 2.1075040226127513 1.7180814668969207 1.0159555561300098
1.9445107018884529 0.9044118797636456 0.04919834913344555 -1.3032349131106356 0.08509182330074777 0.1035302350048987 -1.2955335014778944 0.380211343809283
1.1792603730859044 -2.284129017223573 0.9017642854435683 2.284754537568053 -2.6484667405010427 -4.867975050231411 0.2884473567654131 0.12221734377373418
0.28178493057171083 0.1644961053493258 0.19179747376866407 -0.4762332602241071 -4.073091138673714 7.234059797199483 -0.056263802223150534 0.23343699731500756
-1.8461495060451265 0.29337732942429484 27.979218632264473 -1.9148619007519236 1.054125054294109 0.4352766640152861 0.08401057602454265 -0.7908758792052858
-0.28998204535800776 -0.31862262362912575 0.46188514983494056 -3.3603630182142057 1.2489766562053508 1.323296397820755 -0.972180630968412 0.4463991130630216
00000000: ee59 5433 e5d5 f6bf 948e 985b 6938 ccbf
00000010: 77e4 add6 c9d7 0840 ab0e 0282 d54b 15c0
00000020: 96ba f3f4 04b3 e63f e793 d21f 7bc7 03c0
00000030: 4c1a ed39 9daa 0f40 5ce4 4aae 36ab ec3f
00000040: 0f25 34e8 ffcd cabf f93f 266a 153e eebf
00000050: eee1 15c9 d85c e53f 8521 71f8 ef79 00c0
00000060: cee4 6c1e 8ce9 f23f af71 9b1f ea3b f83f
00000070: 82b8 e0dd 5434 f6bf 780d 9049 d27a fcbf
00000080: 920c 8349 17aa afbf 79ca cb5b b29c 06c0
00000090: 91df 20e8 8ecd d3bf fb56 231b 81e1 0ac0
000000a0: a977 6f71 f3ff bfbf f6ca c8c5 22e9 bcbf
000000b0: b1d7 a7b0 8442 f2bf 54fc 27ad 9edb d33f
000000c0: dc6a 4e9e e914 e43f 767d 5946 db25 e6bf
000000d0: ec8d e9ba 0daa e83f f458 0d69 a4a4 c83f
000000e0: b4f7 f8a4 4d4c d03f 387a 18cb 18de db3f
000000f0: 7ed6 369e 659a b13f c63b 84ab 2796 f43f
00000100: dd23 21e9 fe4b 3040 a0dd 8efe a48c b9bf
00000110: 91bf 4780 acdf f8bf 7e92 6fa1 e95c aa3f
00000120: bef1 e809 baf7 f8bf 346e 53f5 d6fa ee3f
00000130: d69f 07f0 4d05 ec3f d45a c033 3e75 f73f
00000140: 2877 79c3 2db3 de3f 4c74 96c3 bab7 dd3f
00000150: 810b 2c16 cdc2 d3bf 5ca4 126c 2ed4 d3bf
00000160: d99b c298 ff9f 02c0 dcaf f7fe 497a ee3f
00000170: 3237 c78c a389 9ebf 84ea 4f8e 29dc fd3f
00000180: 10ff e3fe 6897 d43f 0857 e289 e181 db3f
00000190: 13fd 82a0 285c 0140 9e61 255f 1b73 a93f
000001a0: e8ec 3f2d bb7e ed3f 2438 f6dc 8dfc dfbf
000001b0: ff16 ab08 80fa ffbf 8694 52b1 97ad 1840
000001c0: ed85 da7d c3b4 8bbf def4 4441 b48c d1bf
000001d0: ae5a 19e6 80df e93f 94f2 1cfd 0dc8 0140
000001e0: 2ca0 4b71 c041 cc3f 97eb 471a ed59 d2bf
000001f0: ea8b 2658 1a3d d9bf 404a b0ea 92f5 d83f
00000200: 344a 7ea2 36b2 eb3f 8836 0711 0835 d23f
00000210: 61e6 408f 58c6 0440 b468 d3cb 9de4 e33f
00000220: a784 1ac6 f9d2 f5bf faca 3ce7 597a 0240
00000230: d017 31b6 6983 ec3f b029 776e 9311 d33f
00000240: 19d9 96fa 0d19 f63f 108c 053f bdb1 f0bf
00000250: 0141 a758 34a2 01c0 2cf5 c49f 577d f23f
00000260: d0a9 551f 8a0b 0840 34b6 30cb 1c49 16c0
00000270: 5889 7c86 e3a8 1040 2fb8 58e5 c0de d03f
00000280: dceb bd1d 58fe d63f 172a f2a3 3a48 e0bf
00000290: 4755 b9a1 e9c8 4040 c8c2 1d53 3f8c da3f
000002a0: b470 9fa0 5f78 e2bf 8415 7433 a60d cc3f
000002b0: 81f6 7915 8378 f73f e0c2 0492 7268 e83f
000002c0: 8773 599a 3b8f f03f 02b1 ee40 a668 e23f
000002d0: cc87 cbdd 3df6 29c0 ac55 6a2c 3606 f63f
000002e0: f9fd d52c 5e9c f1bf c9b6 5599 ebdb f9bf
000002f0: edd5 44db b9b3 f7bf 2cc5 7878 1b8f e13f
00000300: 1337 d480 3be5 c13f 94f6 ec5a f1f3 d8bf
00000310: 1892 273e c3b0 dbbf 4f12 3d42 a268 2ec0
00000320: a8b2 b638 5864 21c0 8d92 f7b5 51a4 e6bf
00000330: bd08 74da 2387 d0bf d025 ff15 309a eabf
00000340: 98a5 be8f 13b7 c93f 8997 fdde edfe ddbf
00000350: 20a4 d03d b0e4 d03f b3ff 7eec 4b7b fb3f
00000360: ff32 0317 6235 e5bf efe5 27a4 9c51 f5bf
00000370: 00eb a62f 6f23 08c0 fd4a ecd4 d7d7 0840
00000380: 4625 8745 0e4c 06c0 ce2b c9b8 dcfd f23f
00000390: bc9a 4d0b e478 f9bf 6a37 0659 3f22 f53f
000003a0: 983a 0724 7317 1040 6d53 15de 26e0 80bf
000003b0: db03 176c eec7 bf3f a3d5 ac29 a68f bcbf
000003c0: c6b3 bbb2 6c71 ee3f 4327 ccf2 ae7a 04c0
000003d0: 727e 9e0d 25c8 f13f 5d1a 3d9e 6a64 fd3f
000003e0: 9311 7dd0 3a09 c0bf 04ff c5f0 875e cd3f
000003f0: ea42 f39f 0da2 07c0 3712 1b59 07c5 c53f
00000400: f2fb aa8b db3c f7bf 6df9 e74c 246a 1ac0
00000410: a238 d500 1de6 e0bf b7c3 c522 da28 08c0
00000420: 1285 5706 659b e73f 781a bd53 f967 cabf
00000430: e46b 16ab 0984 dfbf b5d5 3a26 3053 e5bf
00000440: d152 d69a 69de dbbf fdd2 246d d522 c2bf
00000450: e386 6ba3 5942 21c0 1d1d 35f5 36f9 02c0
00000460: 9b35 2696 4b07 fd3f 6cc9 7ab9 99ac dcbf
00000470: 4eb9 57c3 7bdd b2bf 58bb c9d9 45c4 e83f
00000480: d0a2 9580 008d f6bf a4b9 5d47 9df7 02c0
00000490: 104c c036 4683 bc3f b901 5b9a fd47 0240
000004a0: c3fe 67b8 addc ffbf 1c44 58b5 4645 e2bf
000004b0: 8025 7a1f a847 09c0 8118 c656 ba42 c13f
000004c0: cc30 cb81 bbe3 d4bf ded2 f1e9 f710 22c0
000004d0: bc52 5597 07a2 afbf 51de 69ea 48e0 12c0
000004e0: 9970 0200 0231 c33f 2760 4593 7ee1 d03f
000004f0: 51e4 2e6b 0a6a e3bf 472c 03d2 99a7 01c0
00000500: eda0 8dab 01e1 8dbf 0ff6 0fbd 23d6 f7bf
00000510: 74bc ac68 90ec fdbf d0cf c01b 5121 15c0
00000520: 80dc 697a 0391 cf3f d305 5df6 641a 1540
00000530: cc03 f3db 6677 07c0 f9c5 22b7 8295 c8bf
00000540: c7c0 b324 ed61 03c0 bca8 3658 031b 9fbf
00000550: 2af4 2cb4 98ee be3f e2bd 57a0 bab7 793f
00000560: 2cbb d005 e0d7 0f40 e27b fc83 fdeb b5bf
00000570: 5e34 35c0 5acd dbbf 0bac 786c b6c1 d3bf
00000580: 508a 6cd6 fd09 ed3f 3223 2813 a41a d3bf
00000590: 107d 7ca8 4dc4 cc3f 3bbd 64f0 28b2 10c0
000005a0: 6c73 61eb 2cb7 13c0 7d79 2c05 226a 15c0
000005b0: 0853 a82e fb85 f9bf debb 0d53 30a1 b4bf
000005c0: a030 b9aa e8c7 d73f 9d56 4b28 d94d ff3f
000005d0: 2b33 948e 6401 d5bf d7b7 d246 05f5 f4bf
000005e0: 7eaa 11a3 7abc cebf 5924 6594 6e3e 08c0
000005f0: ec97 7f92 09a6 ce3f faa7 72d6 693a d03f
00000600: 3fb5 525d e3ce e0bf f022 c022 c4bf f13f
00000610: ec5e 1237 a070 ee3f 52a8 07b6 34df e7bf
00000620: cf3f ee58 0a8e 0040 ff92 ca1e d8e1 ccbf
00000630: 35c9 89cc 9fb8 f53f ec72 e768 bfb5 db3f
00000640: 0c01 d6ef 6e21 00c0 5877 d7f4 39e8 e4bf
00000650: 92a4 0b1d 324a e43f 47f9 799c 4f78 0340
00000660: cef2 cba7 85bc c43f 4a22 47fc fb19 e7bf
00000670: ccaa 3c73 9753 ef3f dae0 7e49 04b3 11c0
00000680: abaf d3a6 319d 0840 321e 1bda 5b05 e83f
00000690: 587f 0f89 5099 f63f 7eb2 006d 7dcf ee3f
000006a0: 9dd3 71df 3411 f43f 507b aa11 2bdc 0040
000006b0: c7f9 02fe 427d fb3f 4149 fc9c 5a41 f03f
000006c0: 9a53 f540 b71c ff3f 185c b62e f1f0 ec3f
000006d0: 9e36 17a9 8630 a93f 9f0c 2dda 0cda f4bf
000006e0: 3cd5 3be6 93c8 b53f 9b44 7e1d f580 ba3f
000006f0: cf84 3b56 81ba f4bf 4aa9 cef5 6155 d83f
00000700: a7f6 fd1f 40de f23f 168f 266f e545 02c0
00000710: 38ca 55c6 40db ec3f 6bf0 1163 2d47 0240
00000720: 30f7 9754 0f30 05c0 94f3 9973 ce78 13c0
00000730: bc34 fbe6 eb75 d23f 111e 83c6 a249 bf3f
00000740: 88e9 53a9 c308 d23f 8cb9 6558 350e c53f
00000750: b05a a5d2 d18c c83f 1585 7b11 9b7a debf
00000760: 8cec 4867 d84a 10c0 e51e 195f adef 1c40
00000770: 817c feec 9bce acbf 9c7b 9276 43e1 cd3f
00000780: 91d8 7f10 d489 fdbf 76f8 d0b4 b1c6 d23f
00000790: b335 8112 aefa 3b40 e35f 813b 46a3 febf
000007a0: 1566 a13b b2dd f03f ac16 2aa7 92db db3f
000007b0: f024 8b94 b781 b53f ed38 8cee da4e e9bf
000007c0: 6859 4fda 108f d2bf 122e 1025 5064 d4bf
000007d0: f024 43bb 868f dd3f ca57 8f01 06e2 0ac0
000007e0: 22e9 3df2 cefb f33f 40e0 f8d7 382c f53f
000007f0: 140c fa8d 1a1c efbf e06b e495 cd91 dc3f
