Lab4/trained_rbm/rbm.hid--pen.bias_v.npy (npy, 4128 bytes, 1 tensors)

array f8 [500]
000000 53 7a 75 2e ab af 90 3f 05 07 b0 cb 1c dc 8d bf
       0.01629512282431229 -0.014579987493565047
000010 31 ef 45 b0 59 5e 93 3f ca bb 90 f8 e4 41 86 3f
       0.01891460550676455 0.010867871127713164
000020 72 17 66 a4 9f 89 84 bf 84 0d ef 23 39 d7 7c 3f
       -0.010028121189644888 0.007041190342479967
000030 fa 7e 87 f1 51 af 82 3f 87 db c3 bc 32 08 57 3f
       0.00912345903719779 0.001405763195234862
000040 b3 89 cf a2 2a 96 86 bf 51 ad 77 bf f6 55 81 3f
       -0.011028607457721806 0.008464744299053225
000050 9b 0e e7 c0 fb c5 7a 3f 09 d8 cb f0 22 68 7a 3f
       0.006536467945298742 0.006446968542823236
000060 5f d8 0d 46 ee 14 7f bf a4 77 1f c9 84 38 66 3f
       -0.007588320499840233 0.0027124970883809097
000070 3e 08 ef 09 6a 0f 8c bf 14 d7 7e 74 30 90 82 bf
       -0.01370127528014475 -0.00906408172145804
000080 6d 3e ba 97 6c b2 83 bf fa e4 e0 a2 44 34 82 3f
       -0.009617660885196966 0.008888756008774912
000090 c5 b6 88 75 c6 02 80 3f dc ae cc 29 0e b4 7a bf
       0.007817793332914555 -0.006519370389280712
0000a0 20 c5 4f 9e 90 0c 7f bf 39 f6 9d 30 84 4a 92 bf
       -0.00758034221233686 -0.01786238238081792
0000b0 fe c8 a0 27 bb d9 7a 3f d6 3d e9 4d 77 04 80 bf
       0.006555300782610239 -0.007821018281133723
0000c0 d1 b6 36 2a 6e 13 84 bf b5 ab 30 bc 39 8a 75 3f
       -0.009802685416470254 0.0052587752607377485
0000d0 db 36 59 1e 01 bf 87 3f 28 48 12 0e c5 4e 90 bf
       0.011594780672705187 -0.015925482734538005
0000e0 8c 84 cc 2a 18 28 8d bf ec 57 05 b4 28 01 31 3f
       -0.014236630254858683 0.0002594684956610516
0000f0 3b 2f 91 01 fa 5e 6a bf 08 71 90 d0 b8 97 41 3f
       -0.0032191164905607506 0.0005368854919001473
000100 05 ab e1 7e 20 5e 75 bf ee d0 28 47 90 06 78 bf
       -0.0052167195664008 -0.005865634523207526
000110 a9 ad 95 10 1a 54 7f bf 63 2f 94 7f 7d 1c 88 3f
       -0.007648565116464758 0.01177309079732653
000120 5e c3 eb 34 59 9b 86 3f 43 c2 b9 76 a0 b6 4c bf
       0.011038491179961415 -0.000876262999964857
000130 1a 00 5b 16 13 0a 7b 3f db f8 2a 8e 46 a2 94 bf
       0.006601404723994642 -0.02015028231357339
000140 9e dc 7a 84 57 98 69 3f 38 71 b1 e2 5d 32 60 bf
       0.003124400074593205 -0.001977141733318668
000150 7f 38 e6 48 a7 37 81 bf 60 96 cf 98 dd 2b 87 bf
       -0.008406931793413229 -0.011314135766905042
000160 25 ef 57 d2 58 b5 68 bf e5 b2 2a 51 17 13 77 3f
       -0.003016160468858236 0.005633441049820863
000170 a7 f5 42 fc 1d d3 8a 3f d7 9c 9f 30 15 1b 9c bf
       0.013097986470138446 -0.027447062580816386
000180 f8 05 36 61 29 b5 54 3f d6 ef 2b a4 05 72 72 3f
       0.0012638954256946038 0.0045032711375334235
000190 f1 97 1d 86 57 44 7e 3f 1e 4c 5a 7a 6d f8 70 bf
       0.007389394655410429 -0.004143169067577749
0001a0 38 a6 0e 68 39 3d 7a bf 84 5a e9 e3 b2 77 7a 3f
       -0.006406044239079693 0.006461809911874842
0001b0 4f 28 96 aa 9d b4 50 3f 32 2e 9d 34 8c c8 5a bf
       0.0010196246824727589 -0.0016347283548893252
0001c0 b6 52 a7 a0 2e 5d 87 3f 1c dd 15 7c 91 cf 44 bf
       0.011408199575194327 -0.0006350956320337084
0001d0 61 12 cc 4b 50 ca 69 bf 37 76 8f 2e 88 d2 90 bf
       -0.00314822848156586 -0.016428115693875447
0001e0 f7 5c ed f3 59 ec 99 bf 31 58 d0 f3 53 20 85 3f
       -0.025315671456465485 0.010315566900356373
0001f0 ff 76 4e c1 d2 e9 68 3f 45 f2 9a b1 eb 41 5f 3f
       0.0030411831198325907 0.0019078065583208053
000200 7a 0b 90 c1 ab 44 7a 3f 56 22 e7 a7 29 80 7d 3f
       0.006413145944864302 0.007202303617710534
000210 b7 c7 1c 7f 38 73 55 3f fa 69 26 23 21 0a 95 bf
       0.001309209034343157 -0.020546453256978105
000220 c5 b0 05 09 a4 d9 71 bf 8a e8 f8 05 d7 cc 74 3f
       -0.004357949030559809 0.005078163084869422
000230 4a 25 c6 ef 2c 32 8b bf 50 d1 ee 8e 0a 74 81 3f
       -0.013279295985528922 0.008522112357106565
000240 05 fd 84 53 28 bb 91 3f e1 da 97 f6 89 e2 57 3f
       0.017315511796593536 0.0014578196809204513
000250 65 c5 2c 6d 35 8e 82 3f cd 4b 51 9e 45 95 87 3f
       0.009060304064038413 0.011515182393997759
000260 a2 0b a7 26 35 c1 72 3f 77 87 24 d8 a5 54 80 bf
       0.004578788395920437 -0.007973952921535006
000270 b8 e9 16 48 1a c1 42 3f 2f 13 29 07 2d 53 33 3f
       0.0005723360374568142 0.00029487466159521225
000280 37 64 c2 4e 5b b9 87 bf 36 c4 16 b7 bb b2 90 3f
       -0.011584008542103159 0.016306813287602938
000290 1c a6 a9 fa f1 db 7b bf 7a 62 b4 95 f8 2f 88 bf
       -0.006801552992877127 -0.011810247486708326
0002a0 c3 92 3a 14 18 e9 82 3f de 15 c3 98 3d 56 57 3f
       0.00923365413411526 0.0014243699579748951
0002b0 68 51 f0 7d a0 4f 66 bf af 68 35 66 c8 2b 80 3f
       -0.0027235159500468738 0.00789600908199292
0002c0 81 bc 0c d4 a1 f8 8f bf 79 84 1e 6b a3 89 5f 3f
       -0.015610946925873616 0.001924905384363988
0002d0 5e 3f 37 e8 67 6a 85 3f ae 2d 38 ac b1 af 64 bf
       0.010456859373249191 -0.0025251836939383576
0002e0 ac bf c8 24 fe b9 74 3f b8 ba 15 c3 8c 35 8a bf
       0.005060189007551157 -0.012797450736539914
0002f0 7f 2d 96 8e e4 33 5d 3f ff 0c 6b e1 6f 4a 8f bf
       0.0017823917390583364 -0.0152786961238065
000300 a1 7a bd 00 2b ca 95 bf 83 ca 58 72 84 52 90 bf
       -0.021279022140670126 -0.015939778784920932
000310 ed d6 06 78 af 73 8d bf ae 4f 2c 85 50 60 5a bf
       -0.014380808687615121 -0.0016098772363806013
000320 87 d3 be f2 de 5d 8a bf 0e d6 a3 ce 5a f2 74 3f
       -0.012874357016565486 0.005113939967704718
000330 08 d7 18 cd c1 64 52 3f 6a 01 38 87 47 3d 96 bf
       0.0011226551618057096 -0.021718137386416293
000340 ca a0 29 7d 49 5c 64 bf 9f ed 73 08 dd 86 7f 3f
       -0.0024854121523284244 0.007696975145559475
000350 31 7b b2 1d 24 64 73 bf 73 0a 65 60 f1 87 62 bf
       -0.004734173849242394 -0.0022620882402020702
000360 41 9a cc 8f 9d a1 7a bf 0c ab 0b b0 4e 8a 80 bf
       -0.006501784778072451 -0.00807630038021536
000370 5c f8 77 94 53 d3 90 3f 76 fa a5 e4 01 a0 93 bf
       0.016431146561437834 -0.019165067272746993
000380 d1 bb fe 4b dd 7f 8d 3f 56 42 b1 ce 89 f1 8b bf
       0.014404038316426256 -0.013644291515590695
000390 38 01 81 80 79 ab 34 3f 3a fb 55 08 a0 f7 61 bf
       0.0003153964648881127 -0.002193272174451447
0003a0 35 00 2f 0b 2d d0 83 3f 10 a2 09 2c 22 3c 8a 3f
       0.00967440786723737 0.012810008019372737
0003b0 16 bf e0 64 c6 16 3e 3f 8c 2c 96 fb 3f 48 8a bf
       0.00045912116627543195 -0.01283311831027436
0003c0 e3 16 44 c9 37 40 83 bf ec c3 1b 4f 41 83 4c bf
       -0.009399829702043621 -0.0008701390163122747
0003d0 81 d1 2f b3 40 92 73 bf 0c 57 de fb 4f 3c 7e 3f
       -0.0047781493512854 0.007381737172087243
0003e0 fa bc 51 a2 88 04 6e 3f fb 58 ac 25 02 39 3e bf
       0.0036642712244013805 -0.00046116163655209014
0003f0 e3 d6 d9 f0 09 2a 88 3f d5 04 3d cd a7 cc 7b 3f
       0.01179893270748828 0.006786971545637861
000400 96 5d c4 d9 1a a1 97 bf c7 5e 11 05 80 51 86 3f
       -0.023075503865667445 0.010897636561068137
000410 c3 75 fe f2 7e 4d 50 bf 55 f8 f2 2f 4e 9c 66 3f
       -0.0009950389612421874 0.0027600791068769595
000420 47 c8 33 f6 ad ef 5d bf 1f fd ad e4 e4 2b 76 bf
       -0.0018271635861393397 -0.005412954439520306
000430 4e 0e b6 93 cb 1c 8a 3f b3 89 d3 77 6f 98 3f bf
       0.01275023502854036 -0.000482108320126208
000440 56 4f f5 83 a9 ec 83 bf 87 2b 61 5e d2 94 54 3f
       -0.009728741015954927 0.0012561849957985775
000450 ca a1 9c e5 98 3a 88 3f 6e 6d 3c 31 8d 15 8a bf
       0.011830515391538027 -0.012736418786110728
000460 e7 ca a2 23 30 ac 45 3f b2 6f 8a 49 62 e9 98 3f
       0.0006613955549908652 0.02432778905732364
000470 38 9c 83 cc 1f 09 68 bf 7e f6 52 e7 dc 51 7d bf
       -0.0029340382644593953 -0.007158148674702878
000480 1e bf ea 3a de 58 78 bf 5f 17 8a 78 fd 7d 6b bf
       -0.005944126211644888 -0.0033559752085378504
000490 91 3b 88 a0 0a 56 85 bf 46 3b 36 22 fc fe 12 bf
       -0.01041801741032858 -7.246412183390974e-05
0004a0 f1 a0 44 eb f8 9d 88 bf 2d 2f a4 05 e6 7c 96 3f
       -0.012020058326541934 0.021960825056381573
0004b0 13 c8 5a d4 47 ef 72 3f 43 f9 db 64 93 9e 8d 3f
       0.004622726997398646 0.01446261550472328
0004c0 09 75 8f 45 bb fe 88 bf 45 1b c4 ea d0 fc 94 bf
       -0.012204611835779493 -0.020495666817647935
0004d0 06 52 ae e7 d1 34 64 bf b8 37 cf 53 ce 0c 60 3f
       -0.0024665927607634445 0.001959231360593141
0004e0 ed d7 ff d8 20 ef 7c bf ee c9 d4 38 1e 15 8c bf
       -0.007063988028667351 -0.01371215449271276
0004f0 ca 1f f4 5e 5a 59 85 bf f3 5e b7 96 84 d6 75 bf
       -0.010424333594087804 -0.005331533360241047
000500 29 c5 95 3c 21 11 65 3f b7 02 f0 cb c9 18 4f bf
       0.0025716447022935585 -0.0009489999137031944
000510 70 ac 27 d4 90 5b 8c bf 7c 37 c7 11 39 82 6c bf
       -0.013846522783714316 -0.003480063880693272
000520 10 28 3b 83 4c 3f 8d bf 37 1b 98 86 5e c5 81 bf
       -0.014280889277319658 -0.00867723320244594
000530 65 c6 4a e4 8a 03 80 3f b5 93 7d d1 58 28 68 3f
       0.007819256870195088 0.002948926423345511
000540 a2 4f a8 db 7b 45 61 bf dc e9 cc 57 0f 5f 79 3f
       -0.0021083277799877767 0.00619417184207768
000550 d1 1a de 26 3a f7 64 3f f7 06 c4 e0 9c 97 94 3f
       0.0025592933442938133 0.020109606951343086
000560 d3 4c 2c 74 33 e6 8e bf bc ed 30 43 58 90 70 3f
       -0.015087511046237989 0.004043907904868357
000570 3c a1 c6 90 cc 52 71 bf 6e b2 2f 6d 5d ca 6e bf
       -0.00422935398493279 -0.0037586045013909197
000580 21 01 9c 61 3e 0e 71 3f 15 d3 c0 5c ad 9a 6b bf
       0.004163974453831793 -0.0033696542723426017
000590 d7 7d 5a 54 4d 34 87 3f a4 04 f3 d5 b8 55 8a bf
       0.011330227028621671 -0.012858814267362746
0005a0 d8 1a 0f fc d6 ae 8d bf b0 90 a0 9f a2 5b 90 3f
       -0.014493636672239615 0.01597456073081166
0005b0 cc 9d 26 f3 66 f8 60 bf d8 f4 44 87 a4 af 67 bf
       -0.0020715723741948407 -0.002891370148204158
0005c0 f3 64 dc be b3 8e 4b 3f 2c 05 b9 37 c7 6f 82 bf
       0.0008409860290356216 -0.009002262485526012
0005d0 f6 83 11 ad a2 c9 66 3f a4 8e 91 93 8b 54 7e 3f
       0.0027816941515514905 0.007404847355335118
0005e0 c4 37 6b 8d 36 51 69 3f ee b9 bc 22 b9 fc 71 bf
       0.0030904832341098493 -0.004391406236932556
0005f0 ea d3 a7 36 8c ad 3f 3f 29 11 30 a3 3b 72 7e 3f
       0.0004833667104827121 0.007433159788892398
000600 53 19 17 d2 0d 03 19 bf 8a 2b 4b 27 5c 75 6f 3f
       -9.541293959278623e-05 0.003840141284262304
000610 36 81 99 7d c3 58 8a 3f 3f 0b 59 de a3 ca 90 bf
       0.012864615698334175 -0.016398010679277816
000620 6f 36 5b 7b 6e b4 93 3f 82 c5 55 47 ba 52 81 bf
       0.019242979315825467 -0.008458571722004708
000630 bb 5a 73 70 33 0f 9c 3f 00 fa 2a 21 d8 89 8e 3f
       0.02740173696369184 0.014911354553416523
000640 4a f9 fb d4 cd 4b 83 3f df 36 d5 4b 87 f0 8a 3f
       0.009421928465141467 0.013154084207282533
000650 e8 42 fe 59 fd 9a 71 3f 68 12 85 57 3c 26 81 3f
       0.004298200277745613 0.008373710080044464
000660 61 73 1a 03 3d 31 59 3f fc e8 71 5c 24 1c 78 bf
       0.0015376182385928516 -0.00588621333656136
000670 04 c8 d6 75 1f de 88 bf 2f e8 2c d6 6b 9e 35 bf
       -0.012142415794048851 -0.00032987721185729046
000680 f7 a2 fc 81 83 fd 7f 3f dc 4c b8 07 09 55 62 3f
       0.007810128881637671 0.0022378136034234396
000690 88 71 d5 b0 b2 dd 75 bf 08 cc ca d2 ce 9a 85 bf
       -0.005338380823868845 -0.010549178893915837
0006a0 9a d2 52 0d b6 0d 63 bf ea e9 21 e0 a2 44 7b bf
       -0.0023258739189152113 -0.006657253487100759
0006b0 36 b7 2b f1 fb cd 82 3f 58 fd d1 95 01 0a 8c 3f
       0.009181946084449426 0.013690960297252516
0006c0 48 41 30 fb 44 77 53 3f ea a2 b0 3c 3d d5 86 3f
       0.0011881040234165852 0.011148909010516534
0006d0 c5 ca eb 25 23 bf 7c 3f cc f3 4f c7 7c 69 83 bf
       0.007018220231418131 -0.00947854502919112
0006e0 c2 12 17 c5 30 e3 82 bf 23 ec a2 ed eb 3f 83 3f
       -0.009222394003594817 0.009399264516437416
0006f0 53 bd 17 79 ca c0 56 bf 88 31 54 61 5d e1 75 bf
       -0.0013887383723803672 -0.005341877714510786
000700 fc 4a 01 05 72 e9 8a bf 6e 96 ca 26 e0 15 63 3f
       -0.0131405742432995 0.002329767032579969
000710 37 76 1d 6d 98 c9 7a bf 21 45 88 7e bd b8 5b bf
       -0.0065399126195564905 -0.0016919947175931332
000720 cd 34 08 67 db 3a 70 bf 7e 8b 40 9c 93 a3 63 3f
       -0.003962380448240666 0.0023973353400079103
000730 c1 60 05 2a 5d 6f 9b bf f3 98 83 31 9e f1 86 3f
       -0.026792007150419964 0.011203037153290718
000740 23 86 b7 a8 8c 23 61 bf 28 ec 92 2a 77 26 85 bf
       -0.002092146610934946 -0.010327273356201941
000750 56 0c d9 c7 57 28 50 3f a7 54 4d 52 da 5a 7b bf
       0.000986180995270277 -0.006678440874414416
000760 aa ec e5 54 11 19 76 3f 1a be 3c db b8 a6 92 bf
       0.005395000173275802 -0.018214119321042423
000770 38 2e a9 e2 d8 79 79 bf b2 af b1 0f b7 dc 90 bf
       -0.006219718178339266 -0.016466961224452077
000780 30 a5 74 56 6e e0 7f 3f 0a 80 83 da c1 4d 94 bf
       0.007782393461903056 -0.01982787033273329
000790 0e c2 84 74 d4 89 97 3f 24 3d 88 06 0d 84 85 3f
       0.022986716853838067 0.010505773317190555
0007a0 d6 c3 4f ff 66 5a 8e 3f 59 6f 22 d1 54 2d 11 bf
       0.014820866266719007 -6.552534276454742e-05
0007b0 18 4e 02 07 87 e6 96 3f a3 59 6e 98 e9 62 6e 3f
       0.022363767435832654 0.003709274521905574
0007c0 64 4d 90 0c 13 5b 7e bf 13 3a 01 3a 10 0c 7c 3f
       -0.007411074076134259 0.006847442040522472
0007d0 31 50 7e 7b 6b 29 79 bf 3b 5e f2 93 e1 12 7e bf
       -0.006143016675100242 -0.007342225230921036
0007e0 f6 a3 54 58 2b 61 90 3f 95 f5 6b 94 39 71 53 3f
       0.015995671526216136 0.001186662893530287
0007f0 31 b0 65 9f a5 52 98 3f fb 07 0d c8 91 a2 79 3f
       0.02375277314551755 0.006258553942474872
